<?xml version="1.0" ?>
<net name="inception_v3_2016_08_28_frozen" version="10">
	<layers>
		<layer id="0" name="input" type="Parameter" version="opset1">
			<data element_type="f32" shape="1,3,299,299"/>
			<output>
				<port id="0" names="input:0" precision="FP32">
					<dim>1</dim>
					<dim>3</dim>
					<dim>299</dim>
					<dim>299</dim>
				</port>
			</output>
		</layer>
		<layer id="1" name="data_mul_11378_const" type="Const" version="opset1">
			<data element_type="f32" offset="0" shape="1,1,1,1" size="4"/>
			<output>
				<port id="0" precision="FP32">
					<dim>1</dim>
					<dim>1</dim>
					<dim>1</dim>
					<dim>1</dim>
				</port>
			</output>
		</layer>
		<layer id="2" name="input/scale/Fused_Mul_" type="Multiply" version="opset1">
			<data auto_broadcast="numpy"/>
			<input>
				<port id="0">
					<dim>1</dim>
					<dim>3</dim>
					<dim>299</dim>
					<dim>299</dim>
				</port>
				<port id="1">
					<dim>1</dim>
					<dim>1</dim>
					<dim>1</dim>
					<dim>1</dim>
				</port>
			</input>
			<output>
				<port id="2" precision="FP32">
					<dim>1</dim>
					<dim>3</dim>
					<dim>299</dim>
					<dim>299</dim>
				</port>
			</output>
		</layer>
		<layer id="3" name="input/reverse_input_channels20291/Concat20308_const" type="Const" version="opset1">
			<data element_type="f32" offset="4" shape="1,3,1,1" size="12"/>
			<output>
				<port id="0" precision="FP32">
					<dim>1</dim>
					<dim>3</dim>
					<dim>1</dim>
					<dim>1</dim>
				</port>
			</output>
		</layer>
		<layer id="4" name="input/mean/Fused_Add_" type="Add" version="opset1">
			<data auto_broadcast="numpy"/>
			<input>
				<port id="0">
					<dim>1</dim>
					<dim>3</dim>
					<dim>299</dim>
					<dim>299</dim>
				</port>
				<port id="1">
					<dim>1</dim>
					<dim>3</dim>
					<dim>1</dim>
					<dim>1</dim>
				</port>
			</input>
			<output>
				<port id="2" precision="FP32">
					<dim>1</dim>
					<dim>3</dim>
					<dim>299</dim>
					<dim>299</dim>
				</port>
			</output>
		</layer>
		<layer id="5" name="input/reverse_input_channels/Concat20300_const" type="Const" version="opset1">
			<data element_type="f32" offset="16" shape="32,3,3,3" size="3456"/>
			<output>
				<port id="0" names="InceptionV3/Conv2d_1a_3x3/weights/read:0" precision="FP32">
					<dim>32</dim>
					<dim>3</dim>
					<dim>3</dim>
					<dim>3</dim>
				</port>
			</output>
		</layer>
		<layer id="6" name="InceptionV3/InceptionV3/Conv2d_1a_3x3/convolution" type="Convolution" version="opset1">
			<data auto_pad="valid" dilations="1,1" pads_begin="0,0" pads_end="0,0" strides="2,2"/>
			<input>
				<port id="0">
					<dim>1</dim>
					<dim>3</dim>
					<dim>299</dim>
					<dim>299</dim>
				</port>
				<port id="1">
					<dim>32</dim>
					<dim>3</dim>
					<dim>3</dim>
					<dim>3</dim>
				</port>
			</input>
			<output>
				<port id="2" names="InceptionV3/InceptionV3/Conv2d_1a_3x3/BatchNorm/batchnorm/mul:0" precision="FP32">
					<dim>1</dim>
					<dim>32</dim>
					<dim>149</dim>
					<dim>149</dim>
				</port>
			</output>
		</layer>
		<layer id="7" name="InceptionV3/InceptionV3/Conv2d_1a_3x3/BatchNorm/batchnorm/sub/EltwiseUnsqueeze11677_const" type="Const" version="opset1">
			<data element_type="f32" offset="3472" shape="1,32,1,1" size="128"/>
			<output>
				<port id="0" names="InceptionV3/InceptionV3/Conv2d_1a_3x3/BatchNorm/batchnorm/sub:0" precision="FP32">
					<dim>1</dim>
					<dim>32</dim>
					<dim>1</dim>
					<dim>1</dim>
				</port>
			</output>
		</layer>
		<layer id="8" name="InceptionV3/InceptionV3/Conv2d_1a_3x3/BatchNorm/batchnorm/add_1" type="Add" version="opset1">
			<data auto_broadcast="numpy"/>
			<input>
				<port id="0">
					<dim>1</dim>
					<dim>32</dim>
					<dim>149</dim>
					<dim>149</dim>
				</port>
				<port id="1">
					<dim>1</dim>
					<dim>32</dim>
					<dim>1</dim>
					<dim>1</dim>
				</port>
			</input>
			<output>
				<port id="2" names="InceptionV3/InceptionV3/Conv2d_1a_3x3/BatchNorm/batchnorm/add_1:0" precision="FP32">
					<dim>1</dim>
					<dim>32</dim>
					<dim>149</dim>
					<dim>149</dim>
				</port>
			</output>
		</layer>
		<layer id="9" name="InceptionV3/InceptionV3/Conv2d_1a_3x3/Relu" type="ReLU" version="opset1">
			<input>
				<port id="0">
					<dim>1</dim>
					<dim>32</dim>
					<dim>149</dim>
					<dim>149</dim>
				</port>
			</input>
			<output>
				<port id="1" names="InceptionV3/InceptionV3/Conv2d_1a_3x3/Relu:0" precision="FP32">
					<dim>1</dim>
					<dim>32</dim>
					<dim>149</dim>
					<dim>149</dim>
				</port>
			</output>
		</layer>
		<layer id="10" name="InceptionV3/InceptionV3/Conv2d_2a_3x3/convolution/Transpose15431_const" type="Const" version="opset1">
			<data element_type="f32" offset="3600" shape="32,32,3,3" size="36864"/>
			<output>
				<port id="0" names="InceptionV3/Conv2d_2a_3x3/weights/read:0" precision="FP32">
					<dim>32</dim>
					<dim>32</dim>
					<dim>3</dim>
					<dim>3</dim>
				</port>
			</output>
		</layer>
		<layer id="11" name="InceptionV3/InceptionV3/Conv2d_2a_3x3/convolution" type="Convolution" version="opset1">
			<data auto_pad="valid" dilations="1,1" pads_begin="0,0" pads_end="0,0" strides="1,1"/>
			<input>
				<port id="0">
					<dim>1</dim>
					<dim>32</dim>
					<dim>149</dim>
					<dim>149</dim>
				</port>
				<port id="1">
					<dim>32</dim>
					<dim>32</dim>
					<dim>3</dim>
					<dim>3</dim>
				</port>
			</input>
			<output>
				<port id="2" names="InceptionV3/InceptionV3/Conv2d_2a_3x3/BatchNorm/batchnorm/mul:0" precision="FP32">
					<dim>1</dim>
					<dim>32</dim>
					<dim>147</dim>
					<dim>147</dim>
				</port>
			</output>
		</layer>
		<layer id="12" name="InceptionV3/InceptionV3/Conv2d_2a_3x3/BatchNorm/batchnorm/sub/EltwiseUnsqueeze11685_const" type="Const" version="opset1">
			<data element_type="f32" offset="40464" shape="1,32,1,1" size="128"/>
			<output>
				<port id="0" names="InceptionV3/InceptionV3/Conv2d_2a_3x3/BatchNorm/batchnorm/sub:0" precision="FP32">
					<dim>1</dim>
					<dim>32</dim>
					<dim>1</dim>
					<dim>1</dim>
				</port>
			</output>
		</layer>
		<layer id="13" name="InceptionV3/InceptionV3/Conv2d_2a_3x3/BatchNorm/batchnorm/add_1" type="Add" version="opset1">
			<data auto_broadcast="numpy"/>
			<input>
				<port id="0">
					<dim>1</dim>
					<dim>32</dim>
					<dim>147</dim>
					<dim>147</dim>
				</port>
				<port id="1">
					<dim>1</dim>
					<dim>32</dim>
					<dim>1</dim>
					<dim>1</dim>
				</port>
			</input>
			<output>
				<port id="2" names="InceptionV3/InceptionV3/Conv2d_2a_3x3/BatchNorm/batchnorm/add_1:0" precision="FP32">
					<dim>1</dim>
					<dim>32</dim>
					<dim>147</dim>
					<dim>147</dim>
				</port>
			</output>
		</layer>
		<layer id="14" name="InceptionV3/InceptionV3/Conv2d_2a_3x3/Relu" type="ReLU" version="opset1">
			<input>
				<port id="0">
					<dim>1</dim>
					<dim>32</dim>
					<dim>147</dim>
					<dim>147</dim>
				</port>
			</input>
			<output>
				<port id="1" names="InceptionV3/InceptionV3/Conv2d_2a_3x3/Relu:0" precision="FP32">
					<dim>1</dim>
					<dim>32</dim>
					<dim>147</dim>
					<dim>147</dim>
				</port>
			</output>
		</layer>
		<layer id="15" name="InceptionV3/InceptionV3/Conv2d_2b_3x3/convolution/Transpose15435_const" type="Const" version="opset1">
			<data element_type="f32" offset="40592" shape="64,32,3,3" size="73728"/>
			<output>
				<port id="0" names="InceptionV3/Conv2d_2b_3x3/weights/read:0" precision="FP32">
					<dim>64</dim>
					<dim>32</dim>
					<dim>3</dim>
					<dim>3</dim>
				</port>
			</output>
		</layer>
		<layer id="16" name="InceptionV3/InceptionV3/Conv2d_2b_3x3/convolution" type="Convolution" version="opset1">
			<data auto_pad="same_upper" dilations="1,1" pads_begin="0,0" pads_end="0,0" strides="1,1"/>
			<input>
				<port id="0">
					<dim>1</dim>
					<dim>32</dim>
					<dim>147</dim>
					<dim>147</dim>
				</port>
				<port id="1">
					<dim>64</dim>
					<dim>32</dim>
					<dim>3</dim>
					<dim>3</dim>
				</port>
			</input>
			<output>
				<port id="2" names="InceptionV3/InceptionV3/Conv2d_2b_3x3/BatchNorm/batchnorm/mul:0" precision="FP32">
					<dim>1</dim>
					<dim>64</dim>
					<dim>147</dim>
					<dim>147</dim>
				</port>
			</output>
		</layer>
		<layer id="17" name="InceptionV3/InceptionV3/Conv2d_2b_3x3/BatchNorm/batchnorm/sub/EltwiseUnsqueeze11693_const" type="Const" version="opset1">
			<data element_type="f32" offset="114320" shape="1,64,1,1" size="256"/>
			<output>
				<port id="0" names="InceptionV3/InceptionV3/Conv2d_2b_3x3/BatchNorm/batchnorm/sub:0" precision="FP32">
					<dim>1</dim>
					<dim>64</dim>
					<dim>1</dim>
					<dim>1</dim>
				</port>
			</output>
		</layer>
		<layer id="18" name="InceptionV3/InceptionV3/Conv2d_2b_3x3/BatchNorm/batchnorm/add_1" type="Add" version="opset1">
			<data auto_broadcast="numpy"/>
			<input>
				<port id="0">
					<dim>1</dim>
					<dim>64</dim>
					<dim>147</dim>
					<dim>147</dim>
				</port>
				<port id="1">
					<dim>1</dim>
					<dim>64</dim>
					<dim>1</dim>
					<dim>1</dim>
				</port>
			</input>
			<output>
				<port id="2" names="InceptionV3/InceptionV3/Conv2d_2b_3x3/BatchNorm/batchnorm/add_1:0" precision="FP32">
					<dim>1</dim>
					<dim>64</dim>
					<dim>147</dim>
					<dim>147</dim>
				</port>
			</output>
		</layer>
		<layer id="19" name="InceptionV3/InceptionV3/Conv2d_2b_3x3/Relu" type="ReLU" version="opset1">
			<input>
				<port id="0">
					<dim>1</dim>
					<dim>64</dim>
					<dim>147</dim>
					<dim>147</dim>
				</port>
			</input>
			<output>
				<port id="1" names="InceptionV3/InceptionV3/Conv2d_2b_3x3/Relu:0" precision="FP32">
					<dim>1</dim>
					<dim>64</dim>
					<dim>147</dim>
					<dim>147</dim>
				</port>
			</output>
		</layer>
		<layer id="20" name="InceptionV3/InceptionV3/MaxPool_3a_3x3/MaxPool" type="MaxPool" version="opset1">
			<data auto_pad="valid" kernel="3,3" pads_begin="0,0" pads_end="0,0" strides="2,2"/>
			<input>
				<port id="0">
					<dim>1</dim>
					<dim>64</dim>
					<dim>147</dim>
					<dim>147</dim>
				</port>
			</input>
			<output>
				<port id="1" names="InceptionV3/InceptionV3/MaxPool_3a_3x3/MaxPool:0" precision="FP32">
					<dim>1</dim>
					<dim>64</dim>
					<dim>73</dim>
					<dim>73</dim>
				</port>
			</output>
		</layer>
		<layer id="21" name="InceptionV3/InceptionV3/Conv2d_3b_1x1/convolution/Transpose15439_const" type="Const" version="opset1">
			<data element_type="f32" offset="114576" shape="80,64,1,1" size="20480"/>
			<output>
				<port id="0" names="InceptionV3/Conv2d_3b_1x1/weights/read:0" precision="FP32">
					<dim>80</dim>
					<dim>64</dim>
					<dim>1</dim>
					<dim>1</dim>
				</port>
			</output>
		</layer>
		<layer id="22" name="InceptionV3/InceptionV3/Conv2d_3b_1x1/convolution" type="Convolution" version="opset1">
			<data auto_pad="valid" dilations="1,1" pads_begin="0,0" pads_end="0,0" strides="1,1"/>
			<input>
				<port id="0">
					<dim>1</dim>
					<dim>64</dim>
					<dim>73</dim>
					<dim>73</dim>
				</port>
				<port id="1">
					<dim>80</dim>
					<dim>64</dim>
					<dim>1</dim>
					<dim>1</dim>
				</port>
			</input>
			<output>
				<port id="2" names="InceptionV3/InceptionV3/Conv2d_3b_1x1/BatchNorm/batchnorm/mul:0" precision="FP32">
					<dim>1</dim>
					<dim>80</dim>
					<dim>73</dim>
					<dim>73</dim>
				</port>
			</output>
		</layer>
		<layer id="23" name="InceptionV3/InceptionV3/Conv2d_3b_1x1/BatchNorm/batchnorm/sub/EltwiseUnsqueeze11701_const" type="Const" version="opset1">
			<data element_type="f32" offset="135056" shape="1,80,1,1" size="320"/>
			<output>
				<port id="0" names="InceptionV3/InceptionV3/Conv2d_3b_1x1/BatchNorm/batchnorm/sub:0" precision="FP32">
					<dim>1</dim>
					<dim>80</dim>
					<dim>1</dim>
					<dim>1</dim>
				</port>
			</output>
		</layer>
		<layer id="24" name="InceptionV3/InceptionV3/Conv2d_3b_1x1/BatchNorm/batchnorm/add_1" type="Add" version="opset1">
			<data auto_broadcast="numpy"/>
			<input>
				<port id="0">
					<dim>1</dim>
					<dim>80</dim>
					<dim>73</dim>
					<dim>73</dim>
				</port>
				<port id="1">
					<dim>1</dim>
					<dim>80</dim>
					<dim>1</dim>
					<dim>1</dim>
				</port>
			</input>
			<output>
				<port id="2" names="InceptionV3/InceptionV3/Conv2d_3b_1x1/BatchNorm/batchnorm/add_1:0" precision="FP32">
					<dim>1</dim>
					<dim>80</dim>
					<dim>73</dim>
					<dim>73</dim>
				</port>
			</output>
		</layer>
		<layer id="25" name="InceptionV3/InceptionV3/Conv2d_3b_1x1/Relu" type="ReLU" version="opset1">
			<input>
				<port id="0">
					<dim>1</dim>
					<dim>80</dim>
					<dim>73</dim>
					<dim>73</dim>
				</port>
			</input>
			<output>
				<port id="1" names="InceptionV3/InceptionV3/Conv2d_3b_1x1/Relu:0" precision="FP32">
					<dim>1</dim>
					<dim>80</dim>
					<dim>73</dim>
					<dim>73</dim>
				</port>
			</output>
		</layer>
		<layer id="26" name="InceptionV3/InceptionV3/Conv2d_4a_3x3/convolution/Transpose15443_const" type="Const" version="opset1">
			<data element_type="f32" offset="135376" shape="192,80,3,3" size="552960"/>
			<output>
				<port id="0" names="InceptionV3/Conv2d_4a_3x3/weights/read:0" precision="FP32">
					<dim>192</dim>
					<dim>80</dim>
					<dim>3</dim>
					<dim>3</dim>
				</port>
			</output>
		</layer>
		<layer id="27" name="InceptionV3/InceptionV3/Conv2d_4a_3x3/convolution" type="Convolution" version="opset1">
			<data auto_pad="valid" dilations="1,1" pads_begin="0,0" pads_end="0,0" strides="1,1"/>
			<input>
				<port id="0">
					<dim>1</dim>
					<dim>80</dim>
					<dim>73</dim>
					<dim>73</dim>
				</port>
				<port id="1">
					<dim>192</dim>
					<dim>80</dim>
					<dim>3</dim>
					<dim>3</dim>
				</port>
			</input>
			<output>
				<port id="2" names="InceptionV3/InceptionV3/Conv2d_4a_3x3/BatchNorm/batchnorm/mul:0" precision="FP32">
					<dim>1</dim>
					<dim>192</dim>
					<dim>71</dim>
					<dim>71</dim>
				</port>
			</output>
		</layer>
		<layer id="28" name="InceptionV3/InceptionV3/Conv2d_4a_3x3/BatchNorm/batchnorm/sub/EltwiseUnsqueeze11709_const" type="Const" version="opset1">
			<data element_type="f32" offset="688336" shape="1,192,1,1" size="768"/>
			<output>
				<port id="0" names="InceptionV3/InceptionV3/Conv2d_4a_3x3/BatchNorm/batchnorm/sub:0" precision="FP32">
					<dim>1</dim>
					<dim>192</dim>
					<dim>1</dim>
					<dim>1</dim>
				</port>
			</output>
		</layer>
		<layer id="29" name="InceptionV3/InceptionV3/Conv2d_4a_3x3/BatchNorm/batchnorm/add_1" type="Add" version="opset1">
			<data auto_broadcast="numpy"/>
			<input>
				<port id="0">
					<dim>1</dim>
					<dim>192</dim>
					<dim>71</dim>
					<dim>71</dim>
				</port>
				<port id="1">
					<dim>1</dim>
					<dim>192</dim>
					<dim>1</dim>
					<dim>1</dim>
				</port>
			</input>
			<output>
				<port id="2" names="InceptionV3/InceptionV3/Conv2d_4a_3x3/BatchNorm/batchnorm/add_1:0" precision="FP32">
					<dim>1</dim>
					<dim>192</dim>
					<dim>71</dim>
					<dim>71</dim>
				</port>
			</output>
		</layer>
		<layer id="30" name="InceptionV3/InceptionV3/Conv2d_4a_3x3/Relu" type="ReLU" version="opset1">
			<input>
				<port id="0">
					<dim>1</dim>
					<dim>192</dim>
					<dim>71</dim>
					<dim>71</dim>
				</port>
			</input>
			<output>
				<port id="1" names="InceptionV3/InceptionV3/Conv2d_4a_3x3/Relu:0" precision="FP32">
					<dim>1</dim>
					<dim>192</dim>
					<dim>71</dim>
					<dim>71</dim>
				</port>
			</output>
		</layer>
		<layer id="31" name="InceptionV3/InceptionV3/MaxPool_5a_3x3/MaxPool" type="MaxPool" version="opset1">
			<data auto_pad="valid" kernel="3,3" pads_begin="0,0" pads_end="0,0" strides="2,2"/>
			<input>
				<port id="0">
					<dim>1</dim>
					<dim>192</dim>
					<dim>71</dim>
					<dim>71</dim>
				</port>
			</input>
			<output>
				<port id="1" names="InceptionV3/InceptionV3/MaxPool_5a_3x3/MaxPool:0" precision="FP32">
					<dim>1</dim>
					<dim>192</dim>
					<dim>35</dim>
					<dim>35</dim>
				</port>
			</output>
		</layer>
		<layer id="32" name="InceptionV3/InceptionV3/Mixed_5b/Branch_0/Conv2d_0a_1x1/convolution/Transpose15447_const" type="Const" version="opset1">
			<data element_type="f32" offset="689104" shape="64,192,1,1" size="49152"/>
			<output>
				<port id="0" names="InceptionV3/Mixed_5b/Branch_0/Conv2d_0a_1x1/weights/read:0" precision="FP32">
					<dim>64</dim>
					<dim>192</dim>
					<dim>1</dim>
					<dim>1</dim>
				</port>
			</output>
		</layer>
		<layer id="33" name="InceptionV3/InceptionV3/Mixed_5b/Branch_0/Conv2d_0a_1x1/convolution" type="Convolution" version="opset1">
			<data auto_pad="same_upper" dilations="1,1" pads_begin="0,0" pads_end="0,0" strides="1,1"/>
			<input>
				<port id="0">
					<dim>1</dim>
					<dim>192</dim>
					<dim>35</dim>
					<dim>35</dim>
				</port>
				<port id="1">
					<dim>64</dim>
					<dim>192</dim>
					<dim>1</dim>
					<dim>1</dim>
				</port>
			</input>
			<output>
				<port id="2" names="InceptionV3/InceptionV3/Mixed_5b/Branch_0/Conv2d_0a_1x1/BatchNorm/batchnorm/mul:0" precision="FP32">
					<dim>1</dim>
					<dim>64</dim>
					<dim>35</dim>
					<dim>35</dim>
				</port>
			</output>
		</layer>
		<layer id="34" name="InceptionV3/InceptionV3/Mixed_5b/Branch_0/Conv2d_0a_1x1/BatchNorm/batchnorm/sub/EltwiseUnsqueeze11717_const" type="Const" version="opset1">
			<data element_type="f32" offset="738256" shape="1,64,1,1" size="256"/>
			<output>
				<port id="0" names="InceptionV3/InceptionV3/Mixed_5b/Branch_0/Conv2d_0a_1x1/BatchNorm/batchnorm/sub:0" precision="FP32">
					<dim>1</dim>
					<dim>64</dim>
					<dim>1</dim>
					<dim>1</dim>
				</port>
			</output>
		</layer>
		<layer id="35" name="InceptionV3/InceptionV3/Mixed_5b/Branch_0/Conv2d_0a_1x1/BatchNorm/batchnorm/add_1" type="Add" version="opset1">
			<data auto_broadcast="numpy"/>
			<input>
				<port id="0">
					<dim>1</dim>
					<dim>64</dim>
					<dim>35</dim>
					<dim>35</dim>
				</port>
				<port id="1">
					<dim>1</dim>
					<dim>64</dim>
					<dim>1</dim>
					<dim>1</dim>
				</port>
			</input>
			<output>
				<port id="2" names="InceptionV3/InceptionV3/Mixed_5b/Branch_0/Conv2d_0a_1x1/BatchNorm/batchnorm/add_1:0" precision="FP32">
					<dim>1</dim>
					<dim>64</dim>
					<dim>35</dim>
					<dim>35</dim>
				</port>
			</output>
		</layer>
		<layer id="36" name="InceptionV3/InceptionV3/Mixed_5b/Branch_0/Conv2d_0a_1x1/Relu" type="ReLU" version="opset1">
			<input>
				<port id="0">
					<dim>1</dim>
					<dim>64</dim>
					<dim>35</dim>
					<dim>35</dim>
				</port>
			</input>
			<output>
				<port id="1" names="InceptionV3/InceptionV3/Mixed_5b/Branch_0/Conv2d_0a_1x1/Relu:0" precision="FP32">
					<dim>1</dim>
					<dim>64</dim>
					<dim>35</dim>
					<dim>35</dim>
				</port>
			</output>
		</layer>
		<layer id="37" name="InceptionV3/InceptionV3/Mixed_5b/Branch_1/Conv2d_0a_1x1/convolution/Transpose15451_const" type="Const" version="opset1">
			<data element_type="f32" offset="738512" shape="48,192,1,1" size="36864"/>
			<output>
				<port id="0" names="InceptionV3/Mixed_5b/Branch_1/Conv2d_0a_1x1/weights/read:0" precision="FP32">
					<dim>48</dim>
					<dim>192</dim>
					<dim>1</dim>
					<dim>1</dim>
				</port>
			</output>
		</layer>
		<layer id="38" name="InceptionV3/InceptionV3/Mixed_5b/Branch_1/Conv2d_0a_1x1/convolution" type="Convolution" version="opset1">
			<data auto_pad="same_upper" dilations="1,1" pads_begin="0,0" pads_end="0,0" strides="1,1"/>
			<input>
				<port id="0">
					<dim>1</dim>
					<dim>192</dim>
					<dim>35</dim>
					<dim>35</dim>
				</port>
				<port id="1">
					<dim>48</dim>
					<dim>192</dim>
					<dim>1</dim>
					<dim>1</dim>
				</port>
			</input>
			<output>
				<port id="2" names="InceptionV3/InceptionV3/Mixed_5b/Branch_1/Conv2d_0a_1x1/BatchNorm/batchnorm/mul:0" precision="FP32">
					<dim>1</dim>
					<dim>48</dim>
					<dim>35</dim>
					<dim>35</dim>
				</port>
			</output>
		</layer>
		<layer id="39" name="InceptionV3/InceptionV3/Mixed_5b/Branch_1/Conv2d_0a_1x1/BatchNorm/batchnorm/sub/EltwiseUnsqueeze11725_const" type="Const" version="opset1">
			<data element_type="f32" offset="775376" shape="1,48,1,1" size="192"/>
			<output>
				<port id="0" names="InceptionV3/InceptionV3/Mixed_5b/Branch_1/Conv2d_0a_1x1/BatchNorm/batchnorm/sub:0" precision="FP32">
					<dim>1</dim>
					<dim>48</dim>
					<dim>1</dim>
					<dim>1</dim>
				</port>
			</output>
		</layer>
		<layer id="40" name="InceptionV3/InceptionV3/Mixed_5b/Branch_1/Conv2d_0a_1x1/BatchNorm/batchnorm/add_1" type="Add" version="opset1">
			<data auto_broadcast="numpy"/>
			<input>
				<port id="0">
					<dim>1</dim>
					<dim>48</dim>
					<dim>35</dim>
					<dim>35</dim>
				</port>
				<port id="1">
					<dim>1</dim>
					<dim>48</dim>
					<dim>1</dim>
					<dim>1</dim>
				</port>
			</input>
			<output>
				<port id="2" names="InceptionV3/InceptionV3/Mixed_5b/Branch_1/Conv2d_0a_1x1/BatchNorm/batchnorm/add_1:0" precision="FP32">
					<dim>1</dim>
					<dim>48</dim>
					<dim>35</dim>
					<dim>35</dim>
				</port>
			</output>
		</layer>
		<layer id="41" name="InceptionV3/InceptionV3/Mixed_5b/Branch_1/Conv2d_0a_1x1/Relu" type="ReLU" version="opset1">
			<input>
				<port id="0">
					<dim>1</dim>
					<dim>48</dim>
					<dim>35</dim>
					<dim>35</dim>
				</port>
			</input>
			<output>
				<port id="1" names="InceptionV3/InceptionV3/Mixed_5b/Branch_1/Conv2d_0a_1x1/Relu:0" precision="FP32">
					<dim>1</dim>
					<dim>48</dim>
					<dim>35</dim>
					<dim>35</dim>
				</port>
			</output>
		</layer>
		<layer id="42" name="InceptionV3/InceptionV3/Mixed_5b/Branch_1/Conv2d_0b_5x5/convolution/Transpose15455_const" type="Const" version="opset1">
			<data element_type="f32" offset="775568" shape="64,48,5,5" size="307200"/>
			<output>
				<port id="0" names="InceptionV3/Mixed_5b/Branch_1/Conv2d_0b_5x5/weights/read:0" precision="FP32">
					<dim>64</dim>
					<dim>48</dim>
					<dim>5</dim>
					<dim>5</dim>
				</port>
			</output>
		</layer>
		<layer id="43" name="InceptionV3/InceptionV3/Mixed_5b/Branch_1/Conv2d_0b_5x5/convolution" type="Convolution" version="opset1">
			<data auto_pad="same_upper" dilations="1,1" pads_begin="0,0" pads_end="0,0" strides="1,1"/>
			<input>
				<port id="0">
					<dim>1</dim>
					<dim>48</dim>
					<dim>35</dim>
					<dim>35</dim>
				</port>
				<port id="1">
					<dim>64</dim>
					<dim>48</dim>
					<dim>5</dim>
					<dim>5</dim>
				</port>
			</input>
			<output>
				<port id="2" names="InceptionV3/InceptionV3/Mixed_5b/Branch_1/Conv2d_0b_5x5/BatchNorm/batchnorm/mul:0" precision="FP32">
					<dim>1</dim>
					<dim>64</dim>
					<dim>35</dim>
					<dim>35</dim>
				</port>
			</output>
		</layer>
		<layer id="44" name="InceptionV3/InceptionV3/Mixed_5b/Branch_1/Conv2d_0b_5x5/BatchNorm/batchnorm/sub/EltwiseUnsqueeze11733_const" type="Const" version="opset1">
			<data element_type="f32" offset="1082768" shape="1,64,1,1" size="256"/>
			<output>
				<port id="0" names="InceptionV3/InceptionV3/Mixed_5b/Branch_1/Conv2d_0b_5x5/BatchNorm/batchnorm/sub:0" precision="FP32">
					<dim>1</dim>
					<dim>64</dim>
					<dim>1</dim>
					<dim>1</dim>
				</port>
			</output>
		</layer>
		<layer id="45" name="InceptionV3/InceptionV3/Mixed_5b/Branch_1/Conv2d_0b_5x5/BatchNorm/batchnorm/add_1" type="Add" version="opset1">
			<data auto_broadcast="numpy"/>
			<input>
				<port id="0">
					<dim>1</dim>
					<dim>64</dim>
					<dim>35</dim>
					<dim>35</dim>
				</port>
				<port id="1">
					<dim>1</dim>
					<dim>64</dim>
					<dim>1</dim>
					<dim>1</dim>
				</port>
			</input>
			<output>
				<port id="2" names="InceptionV3/InceptionV3/Mixed_5b/Branch_1/Conv2d_0b_5x5/BatchNorm/batchnorm/add_1:0" precision="FP32">
					<dim>1</dim>
					<dim>64</dim>
					<dim>35</dim>
					<dim>35</dim>
				</port>
			</output>
		</layer>
		<layer id="46" name="InceptionV3/InceptionV3/Mixed_5b/Branch_1/Conv2d_0b_5x5/Relu" type="ReLU" version="opset1">
			<input>
				<port id="0">
					<dim>1</dim>
					<dim>64</dim>
					<dim>35</dim>
					<dim>35</dim>
				</port>
			</input>
			<output>
				<port id="1" names="InceptionV3/InceptionV3/Mixed_5b/Branch_1/Conv2d_0b_5x5/Relu:0" precision="FP32">
					<dim>1</dim>
					<dim>64</dim>
					<dim>35</dim>
					<dim>35</dim>
				</port>
			</output>
		</layer>
		<layer id="47" name="InceptionV3/InceptionV3/Mixed_5b/Branch_2/Conv2d_0a_1x1/convolution/Transpose15459_const" type="Const" version="opset1">
			<data element_type="f32" offset="1083024" shape="64,192,1,1" size="49152"/>
			<output>
				<port id="0" names="InceptionV3/Mixed_5b/Branch_2/Conv2d_0a_1x1/weights/read:0" precision="FP32">
					<dim>64</dim>
					<dim>192</dim>
					<dim>1</dim>
					<dim>1</dim>
				</port>
			</output>
		</layer>
		<layer id="48" name="InceptionV3/InceptionV3/Mixed_5b/Branch_2/Conv2d_0a_1x1/convolution" type="Convolution" version="opset1">
			<data auto_pad="same_upper" dilations="1,1" pads_begin="0,0" pads_end="0,0" strides="1,1"/>
			<input>
				<port id="0">
					<dim>1</dim>
					<dim>192</dim>
					<dim>35</dim>
					<dim>35</dim>
				</port>
				<port id="1">
					<dim>64</dim>
					<dim>192</dim>
					<dim>1</dim>
					<dim>1</dim>
				</port>
			</input>
			<output>
				<port id="2" names="InceptionV3/InceptionV3/Mixed_5b/Branch_2/Conv2d_0a_1x1/BatchNorm/batchnorm/mul:0" precision="FP32">
					<dim>1</dim>
					<dim>64</dim>
					<dim>35</dim>
					<dim>35</dim>
				</port>
			</output>
		</layer>
		<layer id="49" name="InceptionV3/InceptionV3/Mixed_5b/Branch_2/Conv2d_0a_1x1/BatchNorm/batchnorm/sub/EltwiseUnsqueeze11741_const" type="Const" version="opset1">
			<data element_type="f32" offset="1132176" shape="1,64,1,1" size="256"/>
			<output>
				<port id="0" names="InceptionV3/InceptionV3/Mixed_5b/Branch_2/Conv2d_0a_1x1/BatchNorm/batchnorm/sub:0" precision="FP32">
					<dim>1</dim>
					<dim>64</dim>
					<dim>1</dim>
					<dim>1</dim>
				</port>
			</output>
		</layer>
		<layer id="50" name="InceptionV3/InceptionV3/Mixed_5b/Branch_2/Conv2d_0a_1x1/BatchNorm/batchnorm/add_1" type="Add" version="opset1">
			<data auto_broadcast="numpy"/>
			<input>
				<port id="0">
					<dim>1</dim>
					<dim>64</dim>
					<dim>35</dim>
					<dim>35</dim>
				</port>
				<port id="1">
					<dim>1</dim>
					<dim>64</dim>
					<dim>1</dim>
					<dim>1</dim>
				</port>
			</input>
			<output>
				<port id="2" names="InceptionV3/InceptionV3/Mixed_5b/Branch_2/Conv2d_0a_1x1/BatchNorm/batchnorm/add_1:0" precision="FP32">
					<dim>1</dim>
					<dim>64</dim>
					<dim>35</dim>
					<dim>35</dim>
				</port>
			</output>
		</layer>
		<layer id="51" name="InceptionV3/InceptionV3/Mixed_5b/Branch_2/Conv2d_0a_1x1/Relu" type="ReLU" version="opset1">
			<input>
				<port id="0">
					<dim>1</dim>
					<dim>64</dim>
					<dim>35</dim>
					<dim>35</dim>
				</port>
			</input>
			<output>
				<port id="1" names="InceptionV3/InceptionV3/Mixed_5b/Branch_2/Conv2d_0a_1x1/Relu:0" precision="FP32">
					<dim>1</dim>
					<dim>64</dim>
					<dim>35</dim>
					<dim>35</dim>
				</port>
			</output>
		</layer>
		<layer id="52" name="InceptionV3/InceptionV3/Mixed_5b/Branch_2/Conv2d_0b_3x3/convolution/Transpose15463_const" type="Const" version="opset1">
			<data element_type="f32" offset="1132432" shape="96,64,3,3" size="221184"/>
			<output>
				<port id="0" names="InceptionV3/Mixed_5b/Branch_2/Conv2d_0b_3x3/weights/read:0" precision="FP32">
					<dim>96</dim>
					<dim>64</dim>
					<dim>3</dim>
					<dim>3</dim>
				</port>
			</output>
		</layer>
		<layer id="53" name="InceptionV3/InceptionV3/Mixed_5b/Branch_2/Conv2d_0b_3x3/convolution" type="Convolution" version="opset1">
			<data auto_pad="same_upper" dilations="1,1" pads_begin="0,0" pads_end="0,0" strides="1,1"/>
			<input>
				<port id="0">
					<dim>1</dim>
					<dim>64</dim>
					<dim>35</dim>
					<dim>35</dim>
				</port>
				<port id="1">
					<dim>96</dim>
					<dim>64</dim>
					<dim>3</dim>
					<dim>3</dim>
				</port>
			</input>
			<output>
				<port id="2" names="InceptionV3/InceptionV3/Mixed_5b/Branch_2/Conv2d_0b_3x3/BatchNorm/batchnorm/mul:0" precision="FP32">
					<dim>1</dim>
					<dim>96</dim>
					<dim>35</dim>
					<dim>35</dim>
				</port>
			</output>
		</layer>
		<layer id="54" name="InceptionV3/InceptionV3/Mixed_5b/Branch_2/Conv2d_0b_3x3/BatchNorm/batchnorm/sub/EltwiseUnsqueeze11749_const" type="Const" version="opset1">
			<data element_type="f32" offset="1353616" shape="1,96,1,1" size="384"/>
			<output>
				<port id="0" names="InceptionV3/InceptionV3/Mixed_5b/Branch_2/Conv2d_0b_3x3/BatchNorm/batchnorm/sub:0" precision="FP32">
					<dim>1</dim>
					<dim>96</dim>
					<dim>1</dim>
					<dim>1</dim>
				</port>
			</output>
		</layer>
		<layer id="55" name="InceptionV3/InceptionV3/Mixed_5b/Branch_2/Conv2d_0b_3x3/BatchNorm/batchnorm/add_1" type="Add" version="opset1">
			<data auto_broadcast="numpy"/>
			<input>
				<port id="0">
					<dim>1</dim>
					<dim>96</dim>
					<dim>35</dim>
					<dim>35</dim>
				</port>
				<port id="1">
					<dim>1</dim>
					<dim>96</dim>
					<dim>1</dim>
					<dim>1</dim>
				</port>
			</input>
			<output>
				<port id="2" names="InceptionV3/InceptionV3/Mixed_5b/Branch_2/Conv2d_0b_3x3/BatchNorm/batchnorm/add_1:0" precision="FP32">
					<dim>1</dim>
					<dim>96</dim>
					<dim>35</dim>
					<dim>35</dim>
				</port>
			</output>
		</layer>
		<layer id="56" name="InceptionV3/InceptionV3/Mixed_5b/Branch_2/Conv2d_0b_3x3/Relu" type="ReLU" version="opset1">
			<input>
				<port id="0">
					<dim>1</dim>
					<dim>96</dim>
					<dim>35</dim>
					<dim>35</dim>
				</port>
			</input>
			<output>
				<port id="1" names="InceptionV3/InceptionV3/Mixed_5b/Branch_2/Conv2d_0b_3x3/Relu:0" precision="FP32">
					<dim>1</dim>
					<dim>96</dim>
					<dim>35</dim>
					<dim>35</dim>
				</port>
			</output>
		</layer>
		<layer id="57" name="InceptionV3/InceptionV3/Mixed_5b/Branch_2/Conv2d_0c_3x3/convolution/Transpose15467_const" type="Const" version="opset1">
			<data element_type="f32" offset="1354000" shape="96,96,3,3" size="331776"/>
			<output>
				<port id="0" names="InceptionV3/Mixed_5b/Branch_2/Conv2d_0c_3x3/weights/read:0" precision="FP32">
					<dim>96</dim>
					<dim>96</dim>
					<dim>3</dim>
					<dim>3</dim>
				</port>
			</output>
		</layer>
		<layer id="58" name="InceptionV3/InceptionV3/Mixed_5b/Branch_2/Conv2d_0c_3x3/convolution" type="Convolution" version="opset1">
			<data auto_pad="same_upper" dilations="1,1" pads_begin="0,0" pads_end="0,0" strides="1,1"/>
			<input>
				<port id="0">
					<dim>1</dim>
					<dim>96</dim>
					<dim>35</dim>
					<dim>35</dim>
				</port>
				<port id="1">
					<dim>96</dim>
					<dim>96</dim>
					<dim>3</dim>
					<dim>3</dim>
				</port>
			</input>
			<output>
				<port id="2" names="InceptionV3/InceptionV3/Mixed_5b/Branch_2/Conv2d_0c_3x3/BatchNorm/batchnorm/mul:0" precision="FP32">
					<dim>1</dim>
					<dim>96</dim>
					<dim>35</dim>
					<dim>35</dim>
				</port>
			</output>
		</layer>
		<layer id="59" name="InceptionV3/InceptionV3/Mixed_5b/Branch_2/Conv2d_0c_3x3/BatchNorm/batchnorm/sub/EltwiseUnsqueeze11757_const" type="Const" version="opset1">
			<data element_type="f32" offset="1685776" shape="1,96,1,1" size="384"/>
			<output>
				<port id="0" names="InceptionV3/InceptionV3/Mixed_5b/Branch_2/Conv2d_0c_3x3/BatchNorm/batchnorm/sub:0" precision="FP32">
					<dim>1</dim>
					<dim>96</dim>
					<dim>1</dim>
					<dim>1</dim>
				</port>
			</output>
		</layer>
		<layer id="60" name="InceptionV3/InceptionV3/Mixed_5b/Branch_2/Conv2d_0c_3x3/BatchNorm/batchnorm/add_1" type="Add" version="opset1">
			<data auto_broadcast="numpy"/>
			<input>
				<port id="0">
					<dim>1</dim>
					<dim>96</dim>
					<dim>35</dim>
					<dim>35</dim>
				</port>
				<port id="1">
					<dim>1</dim>
					<dim>96</dim>
					<dim>1</dim>
					<dim>1</dim>
				</port>
			</input>
			<output>
				<port id="2" names="InceptionV3/InceptionV3/Mixed_5b/Branch_2/Conv2d_0c_3x3/BatchNorm/batchnorm/add_1:0" precision="FP32">
					<dim>1</dim>
					<dim>96</dim>
					<dim>35</dim>
					<dim>35</dim>
				</port>
			</output>
		</layer>
		<layer id="61" name="InceptionV3/InceptionV3/Mixed_5b/Branch_2/Conv2d_0c_3x3/Relu" type="ReLU" version="opset1">
			<input>
				<port id="0">
					<dim>1</dim>
					<dim>96</dim>
					<dim>35</dim>
					<dim>35</dim>
				</port>
			</input>
			<output>
				<port id="1" names="InceptionV3/InceptionV3/Mixed_5b/Branch_2/Conv2d_0c_3x3/Relu:0" precision="FP32">
					<dim>1</dim>
					<dim>96</dim>
					<dim>35</dim>
					<dim>35</dim>
				</port>
			</output>
		</layer>
		<layer id="62" name="InceptionV3/InceptionV3/Mixed_5b/Branch_3/AvgPool_0a_3x3/AvgPool" type="AvgPool" version="opset1">
			<data auto_pad="same_upper" exclude-pad="true" kernel="3,3" pads_begin="1,1" pads_end="1,1" strides="1,1"/>
			<input>
				<port id="0">
					<dim>1</dim>
					<dim>192</dim>
					<dim>35</dim>
					<dim>35</dim>
				</port>
			</input>
			<output>
				<port id="1" names="InceptionV3/InceptionV3/Mixed_5b/Branch_3/AvgPool_0a_3x3/AvgPool:0" precision="FP32">
					<dim>1</dim>
					<dim>192</dim>
					<dim>35</dim>
					<dim>35</dim>
				</port>
			</output>
		</layer>
		<layer id="63" name="InceptionV3/InceptionV3/Mixed_5b/Branch_3/Conv2d_0b_1x1/convolution/Transpose15471_const" type="Const" version="opset1">
			<data element_type="f32" offset="1686160" shape="32,192,1,1" size="24576"/>
			<output>
				<port id="0" names="InceptionV3/Mixed_5b/Branch_3/Conv2d_0b_1x1/weights/read:0" precision="FP32">
					<dim>32</dim>
					<dim>192</dim>
					<dim>1</dim>
					<dim>1</dim>
				</port>
			</output>
		</layer>
		<layer id="64" name="InceptionV3/InceptionV3/Mixed_5b/Branch_3/Conv2d_0b_1x1/convolution" type="Convolution" version="opset1">
			<data auto_pad="same_upper" dilations="1,1" pads_begin="0,0" pads_end="0,0" strides="1,1"/>
			<input>
				<port id="0">
					<dim>1</dim>
					<dim>192</dim>
					<dim>35</dim>
					<dim>35</dim>
				</port>
				<port id="1">
					<dim>32</dim>
					<dim>192</dim>
					<dim>1</dim>
					<dim>1</dim>
				</port>
			</input>
			<output>
				<port id="2" names="InceptionV3/InceptionV3/Mixed_5b/Branch_3/Conv2d_0b_1x1/BatchNorm/batchnorm/mul:0" precision="FP32">
					<dim>1</dim>
					<dim>32</dim>
					<dim>35</dim>
					<dim>35</dim>
				</port>
			</output>
		</layer>
		<layer id="65" name="InceptionV3/InceptionV3/Mixed_5b/Branch_3/Conv2d_0b_1x1/BatchNorm/batchnorm/sub/EltwiseUnsqueeze11765_const" type="Const" version="opset1">
			<data element_type="f32" offset="1710736" shape="1,32,1,1" size="128"/>
			<output>
				<port id="0" names="InceptionV3/InceptionV3/Mixed_5b/Branch_3/Conv2d_0b_1x1/BatchNorm/batchnorm/sub:0" precision="FP32">
					<dim>1</dim>
					<dim>32</dim>
					<dim>1</dim>
					<dim>1</dim>
				</port>
			</output>
		</layer>
		<layer id="66" name="InceptionV3/InceptionV3/Mixed_5b/Branch_3/Conv2d_0b_1x1/BatchNorm/batchnorm/add_1" type="Add" version="opset1">
			<data auto_broadcast="numpy"/>
			<input>
				<port id="0">
					<dim>1</dim>
					<dim>32</dim>
					<dim>35</dim>
					<dim>35</dim>
				</port>
				<port id="1">
					<dim>1</dim>
					<dim>32</dim>
					<dim>1</dim>
					<dim>1</dim>
				</port>
			</input>
			<output>
				<port id="2" names="InceptionV3/InceptionV3/Mixed_5b/Branch_3/Conv2d_0b_1x1/BatchNorm/batchnorm/add_1:0" precision="FP32">
					<dim>1</dim>
					<dim>32</dim>
					<dim>35</dim>
					<dim>35</dim>
				</port>
			</output>
		</layer>
		<layer id="67" name="InceptionV3/InceptionV3/Mixed_5b/Branch_3/Conv2d_0b_1x1/Relu" type="ReLU" version="opset1">
			<input>
				<port id="0">
					<dim>1</dim>
					<dim>32</dim>
					<dim>35</dim>
					<dim>35</dim>
				</port>
			</input>
			<output>
				<port id="1" names="InceptionV3/InceptionV3/Mixed_5b/Branch_3/Conv2d_0b_1x1/Relu:0" precision="FP32">
					<dim>1</dim>
					<dim>32</dim>
					<dim>35</dim>
					<dim>35</dim>
				</port>
			</output>
		</layer>
		<layer id="68" name="InceptionV3/InceptionV3/Mixed_5b/concat_v2" type="Concat" version="opset1">
			<data axis="1"/>
			<input>
				<port id="0">
					<dim>1</dim>
					<dim>64</dim>
					<dim>35</dim>
					<dim>35</dim>
				</port>
				<port id="1">
					<dim>1</dim>
					<dim>64</dim>
					<dim>35</dim>
					<dim>35</dim>
				</port>
				<port id="2">
					<dim>1</dim>
					<dim>96</dim>
					<dim>35</dim>
					<dim>35</dim>
				</port>
				<port id="3">
					<dim>1</dim>
					<dim>32</dim>
					<dim>35</dim>
					<dim>35</dim>
				</port>
			</input>
			<output>
				<port id="4" names="InceptionV3/InceptionV3/Mixed_5b/concat_v2:0" precision="FP32">
					<dim>1</dim>
					<dim>256</dim>
					<dim>35</dim>
					<dim>35</dim>
				</port>
			</output>
		</layer>
		<layer id="69" name="InceptionV3/InceptionV3/Mixed_5c/Branch_0/Conv2d_0a_1x1/convolution/Transpose15475_const" type="Const" version="opset1">
			<data element_type="f32" offset="1710864" shape="64,256,1,1" size="65536"/>
			<output>
				<port id="0" names="InceptionV3/Mixed_5c/Branch_0/Conv2d_0a_1x1/weights/read:0" precision="FP32">
					<dim>64</dim>
					<dim>256</dim>
					<dim>1</dim>
					<dim>1</dim>
				</port>
			</output>
		</layer>
		<layer id="70" name="InceptionV3/InceptionV3/Mixed_5c/Branch_0/Conv2d_0a_1x1/convolution" type="Convolution" version="opset1">
			<data auto_pad="same_upper" dilations="1,1" pads_begin="0,0" pads_end="0,0" strides="1,1"/>
			<input>
				<port id="0">
					<dim>1</dim>
					<dim>256</dim>
					<dim>35</dim>
					<dim>35</dim>
				</port>
				<port id="1">
					<dim>64</dim>
					<dim>256</dim>
					<dim>1</dim>
					<dim>1</dim>
				</port>
			</input>
			<output>
				<port id="2" names="InceptionV3/InceptionV3/Mixed_5c/Branch_0/Conv2d_0a_1x1/BatchNorm/batchnorm/mul:0" precision="FP32">
					<dim>1</dim>
					<dim>64</dim>
					<dim>35</dim>
					<dim>35</dim>
				</port>
			</output>
		</layer>
		<layer id="71" name="InceptionV3/InceptionV3/Mixed_5c/Branch_0/Conv2d_0a_1x1/BatchNorm/batchnorm/sub/EltwiseUnsqueeze11773_const" type="Const" version="opset1">
			<data element_type="f32" offset="1776400" shape="1,64,1,1" size="256"/>
			<output>
				<port id="0" names="InceptionV3/InceptionV3/Mixed_5c/Branch_0/Conv2d_0a_1x1/BatchNorm/batchnorm/sub:0" precision="FP32">
					<dim>1</dim>
					<dim>64</dim>
					<dim>1</dim>
					<dim>1</dim>
				</port>
			</output>
		</layer>
		<layer id="72" name="InceptionV3/InceptionV3/Mixed_5c/Branch_0/Conv2d_0a_1x1/BatchNorm/batchnorm/add_1" type="Add" version="opset1">
			<data auto_broadcast="numpy"/>
			<input>
				<port id="0">
					<dim>1</dim>
					<dim>64</dim>
					<dim>35</dim>
					<dim>35</dim>
				</port>
				<port id="1">
					<dim>1</dim>
					<dim>64</dim>
					<dim>1</dim>
					<dim>1</dim>
				</port>
			</input>
			<output>
				<port id="2" names="InceptionV3/InceptionV3/Mixed_5c/Branch_0/Conv2d_0a_1x1/BatchNorm/batchnorm/add_1:0" precision="FP32">
					<dim>1</dim>
					<dim>64</dim>
					<dim>35</dim>
					<dim>35</dim>
				</port>
			</output>
		</layer>
		<layer id="73" name="InceptionV3/InceptionV3/Mixed_5c/Branch_0/Conv2d_0a_1x1/Relu" type="ReLU" version="opset1">
			<input>
				<port id="0">
					<dim>1</dim>
					<dim>64</dim>
					<dim>35</dim>
					<dim>35</dim>
				</port>
			</input>
			<output>
				<port id="1" names="InceptionV3/InceptionV3/Mixed_5c/Branch_0/Conv2d_0a_1x1/Relu:0" precision="FP32">
					<dim>1</dim>
					<dim>64</dim>
					<dim>35</dim>
					<dim>35</dim>
				</port>
			</output>
		</layer>
		<layer id="74" name="InceptionV3/InceptionV3/Mixed_5c/Branch_1/Conv2d_0b_1x1/convolution/Transpose15479_const" type="Const" version="opset1">
			<data element_type="f32" offset="1776656" shape="48,256,1,1" size="49152"/>
			<output>
				<port id="0" names="InceptionV3/Mixed_5c/Branch_1/Conv2d_0b_1x1/weights/read:0" precision="FP32">
					<dim>48</dim>
					<dim>256</dim>
					<dim>1</dim>
					<dim>1</dim>
				</port>
			</output>
		</layer>
		<layer id="75" name="InceptionV3/InceptionV3/Mixed_5c/Branch_1/Conv2d_0b_1x1/convolution" type="Convolution" version="opset1">
			<data auto_pad="same_upper" dilations="1,1" pads_begin="0,0" pads_end="0,0" strides="1,1"/>
			<input>
				<port id="0">
					<dim>1</dim>
					<dim>256</dim>
					<dim>35</dim>
					<dim>35</dim>
				</port>
				<port id="1">
					<dim>48</dim>
					<dim>256</dim>
					<dim>1</dim>
					<dim>1</dim>
				</port>
			</input>
			<output>
				<port id="2" names="InceptionV3/InceptionV3/Mixed_5c/Branch_1/Conv2d_0b_1x1/BatchNorm/batchnorm/mul:0" precision="FP32">
					<dim>1</dim>
					<dim>48</dim>
					<dim>35</dim>
					<dim>35</dim>
				</port>
			</output>
		</layer>
		<layer id="76" name="InceptionV3/InceptionV3/Mixed_5c/Branch_1/Conv2d_0b_1x1/BatchNorm/batchnorm/sub/EltwiseUnsqueeze11781_const" type="Const" version="opset1">
			<data element_type="f32" offset="1825808" shape="1,48,1,1" size="192"/>
			<output>
				<port id="0" names="InceptionV3/InceptionV3/Mixed_5c/Branch_1/Conv2d_0b_1x1/BatchNorm/batchnorm/sub:0" precision="FP32">
					<dim>1</dim>
					<dim>48</dim>
					<dim>1</dim>
					<dim>1</dim>
				</port>
			</output>
		</layer>
		<layer id="77" name="InceptionV3/InceptionV3/Mixed_5c/Branch_1/Conv2d_0b_1x1/BatchNorm/batchnorm/add_1" type="Add" version="opset1">
			<data auto_broadcast="numpy"/>
			<input>
				<port id="0">
					<dim>1</dim>
					<dim>48</dim>
					<dim>35</dim>
					<dim>35</dim>
				</port>
				<port id="1">
					<dim>1</dim>
					<dim>48</dim>
					<dim>1</dim>
					<dim>1</dim>
				</port>
			</input>
			<output>
				<port id="2" names="InceptionV3/InceptionV3/Mixed_5c/Branch_1/Conv2d_0b_1x1/BatchNorm/batchnorm/add_1:0" precision="FP32">
					<dim>1</dim>
					<dim>48</dim>
					<dim>35</dim>
					<dim>35</dim>
				</port>
			</output>
		</layer>
		<layer id="78" name="InceptionV3/InceptionV3/Mixed_5c/Branch_1/Conv2d_0b_1x1/Relu" type="ReLU" version="opset1">
			<input>
				<port id="0">
					<dim>1</dim>
					<dim>48</dim>
					<dim>35</dim>
					<dim>35</dim>
				</port>
			</input>
			<output>
				<port id="1" names="InceptionV3/InceptionV3/Mixed_5c/Branch_1/Conv2d_0b_1x1/Relu:0" precision="FP32">
					<dim>1</dim>
					<dim>48</dim>
					<dim>35</dim>
					<dim>35</dim>
				</port>
			</output>
		</layer>
		<layer id="79" name="InceptionV3/InceptionV3/Mixed_5c/Branch_1/Conv_1_0c_5x5/convolution/Transpose15483_const" type="Const" version="opset1">
			<data element_type="f32" offset="1826000" shape="64,48,5,5" size="307200"/>
			<output>
				<port id="0" names="InceptionV3/Mixed_5c/Branch_1/Conv_1_0c_5x5/weights/read:0" precision="FP32">
					<dim>64</dim>
					<dim>48</dim>
					<dim>5</dim>
					<dim>5</dim>
				</port>
			</output>
		</layer>
		<layer id="80" name="InceptionV3/InceptionV3/Mixed_5c/Branch_1/Conv_1_0c_5x5/convolution" type="Convolution" version="opset1">
			<data auto_pad="same_upper" dilations="1,1" pads_begin="0,0" pads_end="0,0" strides="1,1"/>
			<input>
				<port id="0">
					<dim>1</dim>
					<dim>48</dim>
					<dim>35</dim>
					<dim>35</dim>
				</port>
				<port id="1">
					<dim>64</dim>
					<dim>48</dim>
					<dim>5</dim>
					<dim>5</dim>
				</port>
			</input>
			<output>
				<port id="2" names="InceptionV3/InceptionV3/Mixed_5c/Branch_1/Conv_1_0c_5x5/BatchNorm/batchnorm/mul:0" precision="FP32">
					<dim>1</dim>
					<dim>64</dim>
					<dim>35</dim>
					<dim>35</dim>
				</port>
			</output>
		</layer>
		<layer id="81" name="InceptionV3/InceptionV3/Mixed_5c/Branch_1/Conv_1_0c_5x5/BatchNorm/batchnorm/sub/EltwiseUnsqueeze11789_const" type="Const" version="opset1">
			<data element_type="f32" offset="2133200" shape="1,64,1,1" size="256"/>
			<output>
				<port id="0" names="InceptionV3/InceptionV3/Mixed_5c/Branch_1/Conv_1_0c_5x5/BatchNorm/batchnorm/sub:0" precision="FP32">
					<dim>1</dim>
					<dim>64</dim>
					<dim>1</dim>
					<dim>1</dim>
				</port>
			</output>
		</layer>
		<layer id="82" name="InceptionV3/InceptionV3/Mixed_5c/Branch_1/Conv_1_0c_5x5/BatchNorm/batchnorm/add_1" type="Add" version="opset1">
			<data auto_broadcast="numpy"/>
			<input>
				<port id="0">
					<dim>1</dim>
					<dim>64</dim>
					<dim>35</dim>
					<dim>35</dim>
				</port>
				<port id="1">
					<dim>1</dim>
					<dim>64</dim>
					<dim>1</dim>
					<dim>1</dim>
				</port>
			</input>
			<output>
				<port id="2" names="InceptionV3/InceptionV3/Mixed_5c/Branch_1/Conv_1_0c_5x5/BatchNorm/batchnorm/add_1:0" precision="FP32">
					<dim>1</dim>
					<dim>64</dim>
					<dim>35</dim>
					<dim>35</dim>
				</port>
			</output>
		</layer>
		<layer id="83" name="InceptionV3/InceptionV3/Mixed_5c/Branch_1/Conv_1_0c_5x5/Relu" type="ReLU" version="opset1">
			<input>
				<port id="0">
					<dim>1</dim>
					<dim>64</dim>
					<dim>35</dim>
					<dim>35</dim>
				</port>
			</input>
			<output>
				<port id="1" names="InceptionV3/InceptionV3/Mixed_5c/Branch_1/Conv_1_0c_5x5/Relu:0" precision="FP32">
					<dim>1</dim>
					<dim>64</dim>
					<dim>35</dim>
					<dim>35</dim>
				</port>
			</output>
		</layer>
		<layer id="84" name="InceptionV3/InceptionV3/Mixed_5c/Branch_2/Conv2d_0a_1x1/convolution/Transpose15487_const" type="Const" version="opset1">
			<data element_type="f32" offset="2133456" shape="64,256,1,1" size="65536"/>
			<output>
				<port id="0" names="InceptionV3/Mixed_5c/Branch_2/Conv2d_0a_1x1/weights/read:0" precision="FP32">
					<dim>64</dim>
					<dim>256</dim>
					<dim>1</dim>
					<dim>1</dim>
				</port>
			</output>
		</layer>
		<layer id="85" name="InceptionV3/InceptionV3/Mixed_5c/Branch_2/Conv2d_0a_1x1/convolution" type="Convolution" version="opset1">
			<data auto_pad="same_upper" dilations="1,1" pads_begin="0,0" pads_end="0,0" strides="1,1"/>
			<input>
				<port id="0">
					<dim>1</dim>
					<dim>256</dim>
					<dim>35</dim>
					<dim>35</dim>
				</port>
				<port id="1">
					<dim>64</dim>
					<dim>256</dim>
					<dim>1</dim>
					<dim>1</dim>
				</port>
			</input>
			<output>
				<port id="2" names="InceptionV3/InceptionV3/Mixed_5c/Branch_2/Conv2d_0a_1x1/BatchNorm/batchnorm/mul:0" precision="FP32">
					<dim>1</dim>
					<dim>64</dim>
					<dim>35</dim>
					<dim>35</dim>
				</port>
			</output>
		</layer>
		<layer id="86" name="InceptionV3/InceptionV3/Mixed_5c/Branch_2/Conv2d_0a_1x1/BatchNorm/batchnorm/sub/EltwiseUnsqueeze11797_const" type="Const" version="opset1">
			<data element_type="f32" offset="2198992" shape="1,64,1,1" size="256"/>
			<output>
				<port id="0" names="InceptionV3/InceptionV3/Mixed_5c/Branch_2/Conv2d_0a_1x1/BatchNorm/batchnorm/sub:0" precision="FP32">
					<dim>1</dim>
					<dim>64</dim>
					<dim>1</dim>
					<dim>1</dim>
				</port>
			</output>
		</layer>
		<layer id="87" name="InceptionV3/InceptionV3/Mixed_5c/Branch_2/Conv2d_0a_1x1/BatchNorm/batchnorm/add_1" type="Add" version="opset1">
			<data auto_broadcast="numpy"/>
			<input>
				<port id="0">
					<dim>1</dim>
					<dim>64</dim>
					<dim>35</dim>
					<dim>35</dim>
				</port>
				<port id="1">
					<dim>1</dim>
					<dim>64</dim>
					<dim>1</dim>
					<dim>1</dim>
				</port>
			</input>
			<output>
				<port id="2" names="InceptionV3/InceptionV3/Mixed_5c/Branch_2/Conv2d_0a_1x1/BatchNorm/batchnorm/add_1:0" precision="FP32">
					<dim>1</dim>
					<dim>64</dim>
					<dim>35</dim>
					<dim>35</dim>
				</port>
			</output>
		</layer>
		<layer id="88" name="InceptionV3/InceptionV3/Mixed_5c/Branch_2/Conv2d_0a_1x1/Relu" type="ReLU" version="opset1">
			<input>
				<port id="0">
					<dim>1</dim>
					<dim>64</dim>
					<dim>35</dim>
					<dim>35</dim>
				</port>
			</input>
			<output>
				<port id="1" names="InceptionV3/InceptionV3/Mixed_5c/Branch_2/Conv2d_0a_1x1/Relu:0" precision="FP32">
					<dim>1</dim>
					<dim>64</dim>
					<dim>35</dim>
					<dim>35</dim>
				</port>
			</output>
		</layer>
		<layer id="89" name="InceptionV3/InceptionV3/Mixed_5c/Branch_2/Conv2d_0b_3x3/convolution/Transpose15491_const" type="Const" version="opset1">
			<data element_type="f32" offset="2199248" shape="96,64,3,3" size="221184"/>
			<output>
				<port id="0" names="InceptionV3/Mixed_5c/Branch_2/Conv2d_0b_3x3/weights/read:0" precision="FP32">
					<dim>96</dim>
					<dim>64</dim>
					<dim>3</dim>
					<dim>3</dim>
				</port>
			</output>
		</layer>
		<layer id="90" name="InceptionV3/InceptionV3/Mixed_5c/Branch_2/Conv2d_0b_3x3/convolution" type="Convolution" version="opset1">
			<data auto_pad="same_upper" dilations="1,1" pads_begin="0,0" pads_end="0,0" strides="1,1"/>
			<input>
				<port id="0">
					<dim>1</dim>
					<dim>64</dim>
					<dim>35</dim>
					<dim>35</dim>
				</port>
				<port id="1">
					<dim>96</dim>
					<dim>64</dim>
					<dim>3</dim>
					<dim>3</dim>
				</port>
			</input>
			<output>
				<port id="2" names="InceptionV3/InceptionV3/Mixed_5c/Branch_2/Conv2d_0b_3x3/BatchNorm/batchnorm/mul:0" precision="FP32">
					<dim>1</dim>
					<dim>96</dim>
					<dim>35</dim>
					<dim>35</dim>
				</port>
			</output>
		</layer>
		<layer id="91" name="InceptionV3/InceptionV3/Mixed_5c/Branch_2/Conv2d_0b_3x3/BatchNorm/batchnorm/sub/EltwiseUnsqueeze11805_const" type="Const" version="opset1">
			<data element_type="f32" offset="2420432" shape="1,96,1,1" size="384"/>
			<output>
				<port id="0" names="InceptionV3/InceptionV3/Mixed_5c/Branch_2/Conv2d_0b_3x3/BatchNorm/batchnorm/sub:0" precision="FP32">
					<dim>1</dim>
					<dim>96</dim>
					<dim>1</dim>
					<dim>1</dim>
				</port>
			</output>
		</layer>
		<layer id="92" name="InceptionV3/InceptionV3/Mixed_5c/Branch_2/Conv2d_0b_3x3/BatchNorm/batchnorm/add_1" type="Add" version="opset1">
			<data auto_broadcast="numpy"/>
			<input>
				<port id="0">
					<dim>1</dim>
					<dim>96</dim>
					<dim>35</dim>
					<dim>35</dim>
				</port>
				<port id="1">
					<dim>1</dim>
					<dim>96</dim>
					<dim>1</dim>
					<dim>1</dim>
				</port>
			</input>
			<output>
				<port id="2" names="InceptionV3/InceptionV3/Mixed_5c/Branch_2/Conv2d_0b_3x3/BatchNorm/batchnorm/add_1:0" precision="FP32">
					<dim>1</dim>
					<dim>96</dim>
					<dim>35</dim>
					<dim>35</dim>
				</port>
			</output>
		</layer>
		<layer id="93" name="InceptionV3/InceptionV3/Mixed_5c/Branch_2/Conv2d_0b_3x3/Relu" type="ReLU" version="opset1">
			<input>
				<port id="0">
					<dim>1</dim>
					<dim>96</dim>
					<dim>35</dim>
					<dim>35</dim>
				</port>
			</input>
			<output>
				<port id="1" names="InceptionV3/InceptionV3/Mixed_5c/Branch_2/Conv2d_0b_3x3/Relu:0" precision="FP32">
					<dim>1</dim>
					<dim>96</dim>
					<dim>35</dim>
					<dim>35</dim>
				</port>
			</output>
		</layer>
		<layer id="94" name="InceptionV3/InceptionV3/Mixed_5c/Branch_2/Conv2d_0c_3x3/convolution/Transpose15495_const" type="Const" version="opset1">
			<data element_type="f32" offset="2420816" shape="96,96,3,3" size="331776"/>
			<output>
				<port id="0" names="InceptionV3/Mixed_5c/Branch_2/Conv2d_0c_3x3/weights/read:0" precision="FP32">
					<dim>96</dim>
					<dim>96</dim>
					<dim>3</dim>
					<dim>3</dim>
				</port>
			</output>
		</layer>
		<layer id="95" name="InceptionV3/InceptionV3/Mixed_5c/Branch_2/Conv2d_0c_3x3/convolution" type="Convolution" version="opset1">
			<data auto_pad="same_upper" dilations="1,1" pads_begin="0,0" pads_end="0,0" strides="1,1"/>
			<input>
				<port id="0">
					<dim>1</dim>
					<dim>96</dim>
					<dim>35</dim>
					<dim>35</dim>
				</port>
				<port id="1">
					<dim>96</dim>
					<dim>96</dim>
					<dim>3</dim>
					<dim>3</dim>
				</port>
			</input>
			<output>
				<port id="2" names="InceptionV3/InceptionV3/Mixed_5c/Branch_2/Conv2d_0c_3x3/BatchNorm/batchnorm/mul:0" precision="FP32">
					<dim>1</dim>
					<dim>96</dim>
					<dim>35</dim>
					<dim>35</dim>
				</port>
			</output>
		</layer>
		<layer id="96" name="InceptionV3/InceptionV3/Mixed_5c/Branch_2/Conv2d_0c_3x3/BatchNorm/batchnorm/sub/EltwiseUnsqueeze11813_const" type="Const" version="opset1">
			<data element_type="f32" offset="2752592" shape="1,96,1,1" size="384"/>
			<output>
				<port id="0" names="InceptionV3/InceptionV3/Mixed_5c/Branch_2/Conv2d_0c_3x3/BatchNorm/batchnorm/sub:0" precision="FP32">
					<dim>1</dim>
					<dim>96</dim>
					<dim>1</dim>
					<dim>1</dim>
				</port>
			</output>
		</layer>
		<layer id="97" name="InceptionV3/InceptionV3/Mixed_5c/Branch_2/Conv2d_0c_3x3/BatchNorm/batchnorm/add_1" type="Add" version="opset1">
			<data auto_broadcast="numpy"/>
			<input>
				<port id="0">
					<dim>1</dim>
					<dim>96</dim>
					<dim>35</dim>
					<dim>35</dim>
				</port>
				<port id="1">
					<dim>1</dim>
					<dim>96</dim>
					<dim>1</dim>
					<dim>1</dim>
				</port>
			</input>
			<output>
				<port id="2" names="InceptionV3/InceptionV3/Mixed_5c/Branch_2/Conv2d_0c_3x3/BatchNorm/batchnorm/add_1:0" precision="FP32">
					<dim>1</dim>
					<dim>96</dim>
					<dim>35</dim>
					<dim>35</dim>
				</port>
			</output>
		</layer>
		<layer id="98" name="InceptionV3/InceptionV3/Mixed_5c/Branch_2/Conv2d_0c_3x3/Relu" type="ReLU" version="opset1">
			<input>
				<port id="0">
					<dim>1</dim>
					<dim>96</dim>
					<dim>35</dim>
					<dim>35</dim>
				</port>
			</input>
			<output>
				<port id="1" names="InceptionV3/InceptionV3/Mixed_5c/Branch_2/Conv2d_0c_3x3/Relu:0" precision="FP32">
					<dim>1</dim>
					<dim>96</dim>
					<dim>35</dim>
					<dim>35</dim>
				</port>
			</output>
		</layer>
		<layer id="99" name="InceptionV3/InceptionV3/Mixed_5c/Branch_3/AvgPool_0a_3x3/AvgPool" type="AvgPool" version="opset1">
			<data auto_pad="same_upper" exclude-pad="true" kernel="3,3" pads_begin="1,1" pads_end="1,1" strides="1,1"/>
			<input>
				<port id="0">
					<dim>1</dim>
					<dim>256</dim>
					<dim>35</dim>
					<dim>35</dim>
				</port>
			</input>
			<output>
				<port id="1" names="InceptionV3/InceptionV3/Mixed_5c/Branch_3/AvgPool_0a_3x3/AvgPool:0" precision="FP32">
					<dim>1</dim>
					<dim>256</dim>
					<dim>35</dim>
					<dim>35</dim>
				</port>
			</output>
		</layer>
		<layer id="100" name="InceptionV3/InceptionV3/Mixed_5c/Branch_3/Conv2d_0b_1x1/convolution/Transpose15499_const" type="Const" version="opset1">
			<data element_type="f32" offset="2752976" shape="64,256,1,1" size="65536"/>
			<output>
				<port id="0" names="InceptionV3/Mixed_5c/Branch_3/Conv2d_0b_1x1/weights/read:0" precision="FP32">
					<dim>64</dim>
					<dim>256</dim>
					<dim>1</dim>
					<dim>1</dim>
				</port>
			</output>
		</layer>
		<layer id="101" name="InceptionV3/InceptionV3/Mixed_5c/Branch_3/Conv2d_0b_1x1/convolution" type="Convolution" version="opset1">
			<data auto_pad="same_upper" dilations="1,1" pads_begin="0,0" pads_end="0,0" strides="1,1"/>
			<input>
				<port id="0">
					<dim>1</dim>
					<dim>256</dim>
					<dim>35</dim>
					<dim>35</dim>
				</port>
				<port id="1">
					<dim>64</dim>
					<dim>256</dim>
					<dim>1</dim>
					<dim>1</dim>
				</port>
			</input>
			<output>
				<port id="2" names="InceptionV3/InceptionV3/Mixed_5c/Branch_3/Conv2d_0b_1x1/BatchNorm/batchnorm/mul:0" precision="FP32">
					<dim>1</dim>
					<dim>64</dim>
					<dim>35</dim>
					<dim>35</dim>
				</port>
			</output>
		</layer>
		<layer id="102" name="InceptionV3/InceptionV3/Mixed_5c/Branch_3/Conv2d_0b_1x1/BatchNorm/batchnorm/sub/EltwiseUnsqueeze11821_const" type="Const" version="opset1">
			<data element_type="f32" offset="2818512" shape="1,64,1,1" size="256"/>
			<output>
				<port id="0" names="InceptionV3/InceptionV3/Mixed_5c/Branch_3/Conv2d_0b_1x1/BatchNorm/batchnorm/sub:0" precision="FP32">
					<dim>1</dim>
					<dim>64</dim>
					<dim>1</dim>
					<dim>1</dim>
				</port>
			</output>
		</layer>
		<layer id="103" name="InceptionV3/InceptionV3/Mixed_5c/Branch_3/Conv2d_0b_1x1/BatchNorm/batchnorm/add_1" type="Add" version="opset1">
			<data auto_broadcast="numpy"/>
			<input>
				<port id="0">
					<dim>1</dim>
					<dim>64</dim>
					<dim>35</dim>
					<dim>35</dim>
				</port>
				<port id="1">
					<dim>1</dim>
					<dim>64</dim>
					<dim>1</dim>
					<dim>1</dim>
				</port>
			</input>
			<output>
				<port id="2" names="InceptionV3/InceptionV3/Mixed_5c/Branch_3/Conv2d_0b_1x1/BatchNorm/batchnorm/add_1:0" precision="FP32">
					<dim>1</dim>
					<dim>64</dim>
					<dim>35</dim>
					<dim>35</dim>
				</port>
			</output>
		</layer>
		<layer id="104" name="InceptionV3/InceptionV3/Mixed_5c/Branch_3/Conv2d_0b_1x1/Relu" type="ReLU" version="opset1">
			<input>
				<port id="0">
					<dim>1</dim>
					<dim>64</dim>
					<dim>35</dim>
					<dim>35</dim>
				</port>
			</input>
			<output>
				<port id="1" names="InceptionV3/InceptionV3/Mixed_5c/Branch_3/Conv2d_0b_1x1/Relu:0" precision="FP32">
					<dim>1</dim>
					<dim>64</dim>
					<dim>35</dim>
					<dim>35</dim>
				</port>
			</output>
		</layer>
		<layer id="105" name="InceptionV3/InceptionV3/Mixed_5c/concat_v2" type="Concat" version="opset1">
			<data axis="1"/>
			<input>
				<port id="0">
					<dim>1</dim>
					<dim>64</dim>
					<dim>35</dim>
					<dim>35</dim>
				</port>
				<port id="1">
					<dim>1</dim>
					<dim>64</dim>
					<dim>35</dim>
					<dim>35</dim>
				</port>
				<port id="2">
					<dim>1</dim>
					<dim>96</dim>
					<dim>35</dim>
					<dim>35</dim>
				</port>
				<port id="3">
					<dim>1</dim>
					<dim>64</dim>
					<dim>35</dim>
					<dim>35</dim>
				</port>
			</input>
			<output>
				<port id="4" names="InceptionV3/InceptionV3/Mixed_5c/concat_v2:0" precision="FP32">
					<dim>1</dim>
					<dim>288</dim>
					<dim>35</dim>
					<dim>35</dim>
				</port>
			</output>
		</layer>
		<layer id="106" name="InceptionV3/InceptionV3/Mixed_5d/Branch_0/Conv2d_0a_1x1/convolution/Transpose15503_const" type="Const" version="opset1">
			<data element_type="f32" offset="2818768" shape="64,288,1,1" size="73728"/>
			<output>
				<port id="0" names="InceptionV3/Mixed_5d/Branch_0/Conv2d_0a_1x1/weights/read:0" precision="FP32">
					<dim>64</dim>
					<dim>288</dim>
					<dim>1</dim>
					<dim>1</dim>
				</port>
			</output>
		</layer>
		<layer id="107" name="InceptionV3/InceptionV3/Mixed_5d/Branch_0/Conv2d_0a_1x1/convolution" type="Convolution" version="opset1">
			<data auto_pad="same_upper" dilations="1,1" pads_begin="0,0" pads_end="0,0" strides="1,1"/>
			<input>
				<port id="0">
					<dim>1</dim>
					<dim>288</dim>
					<dim>35</dim>
					<dim>35</dim>
				</port>
				<port id="1">
					<dim>64</dim>
					<dim>288</dim>
					<dim>1</dim>
					<dim>1</dim>
				</port>
			</input>
			<output>
				<port id="2" names="InceptionV3/InceptionV3/Mixed_5d/Branch_0/Conv2d_0a_1x1/BatchNorm/batchnorm/mul:0" precision="FP32">
					<dim>1</dim>
					<dim>64</dim>
					<dim>35</dim>
					<dim>35</dim>
				</port>
			</output>
		</layer>
		<layer id="108" name="InceptionV3/InceptionV3/Mixed_5d/Branch_0/Conv2d_0a_1x1/BatchNorm/batchnorm/sub/EltwiseUnsqueeze11829_const" type="Const" version="opset1">
			<data element_type="f32" offset="2892496" shape="1,64,1,1" size="256"/>
			<output>
				<port id="0" names="InceptionV3/InceptionV3/Mixed_5d/Branch_0/Conv2d_0a_1x1/BatchNorm/batchnorm/sub:0" precision="FP32">
					<dim>1</dim>
					<dim>64</dim>
					<dim>1</dim>
					<dim>1</dim>
				</port>
			</output>
		</layer>
		<layer id="109" name="InceptionV3/InceptionV3/Mixed_5d/Branch_0/Conv2d_0a_1x1/BatchNorm/batchnorm/add_1" type="Add" version="opset1">
			<data auto_broadcast="numpy"/>
			<input>
				<port id="0">
					<dim>1</dim>
					<dim>64</dim>
					<dim>35</dim>
					<dim>35</dim>
				</port>
				<port id="1">
					<dim>1</dim>
					<dim>64</dim>
					<dim>1</dim>
					<dim>1</dim>
				</port>
			</input>
			<output>
				<port id="2" names="InceptionV3/InceptionV3/Mixed_5d/Branch_0/Conv2d_0a_1x1/BatchNorm/batchnorm/add_1:0" precision="FP32">
					<dim>1</dim>
					<dim>64</dim>
					<dim>35</dim>
					<dim>35</dim>
				</port>
			</output>
		</layer>
		<layer id="110" name="InceptionV3/InceptionV3/Mixed_5d/Branch_0/Conv2d_0a_1x1/Relu" type="ReLU" version="opset1">
			<input>
				<port id="0">
					<dim>1</dim>
					<dim>64</dim>
					<dim>35</dim>
					<dim>35</dim>
				</port>
			</input>
			<output>
				<port id="1" names="InceptionV3/InceptionV3/Mixed_5d/Branch_0/Conv2d_0a_1x1/Relu:0" precision="FP32">
					<dim>1</dim>
					<dim>64</dim>
					<dim>35</dim>
					<dim>35</dim>
				</port>
			</output>
		</layer>
		<layer id="111" name="InceptionV3/InceptionV3/Mixed_5d/Branch_1/Conv2d_0a_1x1/convolution/Transpose15507_const" type="Const" version="opset1">
			<data element_type="f32" offset="2892752" shape="48,288,1,1" size="55296"/>
			<output>
				<port id="0" names="InceptionV3/Mixed_5d/Branch_1/Conv2d_0a_1x1/weights/read:0" precision="FP32">
					<dim>48</dim>
					<dim>288</dim>
					<dim>1</dim>
					<dim>1</dim>
				</port>
			</output>
		</layer>
		<layer id="112" name="InceptionV3/InceptionV3/Mixed_5d/Branch_1/Conv2d_0a_1x1/convolution" type="Convolution" version="opset1">
			<data auto_pad="same_upper" dilations="1,1" pads_begin="0,0" pads_end="0,0" strides="1,1"/>
			<input>
				<port id="0">
					<dim>1</dim>
					<dim>288</dim>
					<dim>35</dim>
					<dim>35</dim>
				</port>
				<port id="1">
					<dim>48</dim>
					<dim>288</dim>
					<dim>1</dim>
					<dim>1</dim>
				</port>
			</input>
			<output>
				<port id="2" names="InceptionV3/InceptionV3/Mixed_5d/Branch_1/Conv2d_0a_1x1/BatchNorm/batchnorm/mul:0" precision="FP32">
					<dim>1</dim>
					<dim>48</dim>
					<dim>35</dim>
					<dim>35</dim>
				</port>
			</output>
		</layer>
		<layer id="113" name="InceptionV3/InceptionV3/Mixed_5d/Branch_1/Conv2d_0a_1x1/BatchNorm/batchnorm/sub/EltwiseUnsqueeze11837_const" type="Const" version="opset1">
			<data element_type="f32" offset="2948048" shape="1,48,1,1" size="192"/>
			<output>
				<port id="0" names="InceptionV3/InceptionV3/Mixed_5d/Branch_1/Conv2d_0a_1x1/BatchNorm/batchnorm/sub:0" precision="FP32">
					<dim>1</dim>
					<dim>48</dim>
					<dim>1</dim>
					<dim>1</dim>
				</port>
			</output>
		</layer>
		<layer id="114" name="InceptionV3/InceptionV3/Mixed_5d/Branch_1/Conv2d_0a_1x1/BatchNorm/batchnorm/add_1" type="Add" version="opset1">
			<data auto_broadcast="numpy"/>
			<input>
				<port id="0">
					<dim>1</dim>
					<dim>48</dim>
					<dim>35</dim>
					<dim>35</dim>
				</port>
				<port id="1">
					<dim>1</dim>
					<dim>48</dim>
					<dim>1</dim>
					<dim>1</dim>
				</port>
			</input>
			<output>
				<port id="2" names="InceptionV3/InceptionV3/Mixed_5d/Branch_1/Conv2d_0a_1x1/BatchNorm/batchnorm/add_1:0" precision="FP32">
					<dim>1</dim>
					<dim>48</dim>
					<dim>35</dim>
					<dim>35</dim>
				</port>
			</output>
		</layer>
		<layer id="115" name="InceptionV3/InceptionV3/Mixed_5d/Branch_1/Conv2d_0a_1x1/Relu" type="ReLU" version="opset1">
			<input>
				<port id="0">
					<dim>1</dim>
					<dim>48</dim>
					<dim>35</dim>
					<dim>35</dim>
				</port>
			</input>
			<output>
				<port id="1" names="InceptionV3/InceptionV3/Mixed_5d/Branch_1/Conv2d_0a_1x1/Relu:0" precision="FP32">
					<dim>1</dim>
					<dim>48</dim>
					<dim>35</dim>
					<dim>35</dim>
				</port>
			</output>
		</layer>
		<layer id="116" name="InceptionV3/InceptionV3/Mixed_5d/Branch_1/Conv2d_0b_5x5/convolution/Transpose15511_const" type="Const" version="opset1">
			<data element_type="f32" offset="2948240" shape="64,48,5,5" size="307200"/>
			<output>
				<port id="0" names="InceptionV3/Mixed_5d/Branch_1/Conv2d_0b_5x5/weights/read:0" precision="FP32">
					<dim>64</dim>
					<dim>48</dim>
					<dim>5</dim>
					<dim>5</dim>
				</port>
			</output>
		</layer>
		<layer id="117" name="InceptionV3/InceptionV3/Mixed_5d/Branch_1/Conv2d_0b_5x5/convolution" type="Convolution" version="opset1">
			<data auto_pad="same_upper" dilations="1,1" pads_begin="0,0" pads_end="0,0" strides="1,1"/>
			<input>
				<port id="0">
					<dim>1</dim>
					<dim>48</dim>
					<dim>35</dim>
					<dim>35</dim>
				</port>
				<port id="1">
					<dim>64</dim>
					<dim>48</dim>
					<dim>5</dim>
					<dim>5</dim>
				</port>
			</input>
			<output>
				<port id="2" names="InceptionV3/InceptionV3/Mixed_5d/Branch_1/Conv2d_0b_5x5/BatchNorm/batchnorm/mul:0" precision="FP32">
					<dim>1</dim>
					<dim>64</dim>
					<dim>35</dim>
					<dim>35</dim>
				</port>
			</output>
		</layer>
		<layer id="118" name="InceptionV3/InceptionV3/Mixed_5d/Branch_1/Conv2d_0b_5x5/BatchNorm/batchnorm/sub/EltwiseUnsqueeze11845_const" type="Const" version="opset1">
			<data element_type="f32" offset="3255440" shape="1,64,1,1" size="256"/>
			<output>
				<port id="0" names="InceptionV3/InceptionV3/Mixed_5d/Branch_1/Conv2d_0b_5x5/BatchNorm/batchnorm/sub:0" precision="FP32">
					<dim>1</dim>
					<dim>64</dim>
					<dim>1</dim>
					<dim>1</dim>
				</port>
			</output>
		</layer>
		<layer id="119" name="InceptionV3/InceptionV3/Mixed_5d/Branch_1/Conv2d_0b_5x5/BatchNorm/batchnorm/add_1" type="Add" version="opset1">
			<data auto_broadcast="numpy"/>
			<input>
				<port id="0">
					<dim>1</dim>
					<dim>64</dim>
					<dim>35</dim>
					<dim>35</dim>
				</port>
				<port id="1">
					<dim>1</dim>
					<dim>64</dim>
					<dim>1</dim>
					<dim>1</dim>
				</port>
			</input>
			<output>
				<port id="2" names="InceptionV3/InceptionV3/Mixed_5d/Branch_1/Conv2d_0b_5x5/BatchNorm/batchnorm/add_1:0" precision="FP32">
					<dim>1</dim>
					<dim>64</dim>
					<dim>35</dim>
					<dim>35</dim>
				</port>
			</output>
		</layer>
		<layer id="120" name="InceptionV3/InceptionV3/Mixed_5d/Branch_1/Conv2d_0b_5x5/Relu" type="ReLU" version="opset1">
			<input>
				<port id="0">
					<dim>1</dim>
					<dim>64</dim>
					<dim>35</dim>
					<dim>35</dim>
				</port>
			</input>
			<output>
				<port id="1" names="InceptionV3/InceptionV3/Mixed_5d/Branch_1/Conv2d_0b_5x5/Relu:0" precision="FP32">
					<dim>1</dim>
					<dim>64</dim>
					<dim>35</dim>
					<dim>35</dim>
				</port>
			</output>
		</layer>
		<layer id="121" name="InceptionV3/InceptionV3/Mixed_5d/Branch_2/Conv2d_0a_1x1/convolution/Transpose15515_const" type="Const" version="opset1">
			<data element_type="f32" offset="3255696" shape="64,288,1,1" size="73728"/>
			<output>
				<port id="0" names="InceptionV3/Mixed_5d/Branch_2/Conv2d_0a_1x1/weights/read:0" precision="FP32">
					<dim>64</dim>
					<dim>288</dim>
					<dim>1</dim>
					<dim>1</dim>
				</port>
			</output>
		</layer>
		<layer id="122" name="InceptionV3/InceptionV3/Mixed_5d/Branch_2/Conv2d_0a_1x1/convolution" type="Convolution" version="opset1">
			<data auto_pad="same_upper" dilations="1,1" pads_begin="0,0" pads_end="0,0" strides="1,1"/>
			<input>
				<port id="0">
					<dim>1</dim>
					<dim>288</dim>
					<dim>35</dim>
					<dim>35</dim>
				</port>
				<port id="1">
					<dim>64</dim>
					<dim>288</dim>
					<dim>1</dim>
					<dim>1</dim>
				</port>
			</input>
			<output>
				<port id="2" names="InceptionV3/InceptionV3/Mixed_5d/Branch_2/Conv2d_0a_1x1/BatchNorm/batchnorm/mul:0" precision="FP32">
					<dim>1</dim>
					<dim>64</dim>
					<dim>35</dim>
					<dim>35</dim>
				</port>
			</output>
		</layer>
		<layer id="123" name="InceptionV3/InceptionV3/Mixed_5d/Branch_2/Conv2d_0a_1x1/BatchNorm/batchnorm/sub/EltwiseUnsqueeze11853_const" type="Const" version="opset1">
			<data element_type="f32" offset="3329424" shape="1,64,1,1" size="256"/>
			<output>
				<port id="0" names="InceptionV3/InceptionV3/Mixed_5d/Branch_2/Conv2d_0a_1x1/BatchNorm/batchnorm/sub:0" precision="FP32">
					<dim>1</dim>
					<dim>64</dim>
					<dim>1</dim>
					<dim>1</dim>
				</port>
			</output>
		</layer>
		<layer id="124" name="InceptionV3/InceptionV3/Mixed_5d/Branch_2/Conv2d_0a_1x1/BatchNorm/batchnorm/add_1" type="Add" version="opset1">
			<data auto_broadcast="numpy"/>
			<input>
				<port id="0">
					<dim>1</dim>
					<dim>64</dim>
					<dim>35</dim>
					<dim>35</dim>
				</port>
				<port id="1">
					<dim>1</dim>
					<dim>64</dim>
					<dim>1</dim>
					<dim>1</dim>
				</port>
			</input>
			<output>
				<port id="2" names="InceptionV3/InceptionV3/Mixed_5d/Branch_2/Conv2d_0a_1x1/BatchNorm/batchnorm/add_1:0" precision="FP32">
					<dim>1</dim>
					<dim>64</dim>
					<dim>35</dim>
					<dim>35</dim>
				</port>
			</output>
		</layer>
		<layer id="125" name="InceptionV3/InceptionV3/Mixed_5d/Branch_2/Conv2d_0a_1x1/Relu" type="ReLU" version="opset1">
			<input>
				<port id="0">
					<dim>1</dim>
					<dim>64</dim>
					<dim>35</dim>
					<dim>35</dim>
				</port>
			</input>
			<output>
				<port id="1" names="InceptionV3/InceptionV3/Mixed_5d/Branch_2/Conv2d_0a_1x1/Relu:0" precision="FP32">
					<dim>1</dim>
					<dim>64</dim>
					<dim>35</dim>
					<dim>35</dim>
				</port>
			</output>
		</layer>
		<layer id="126" name="InceptionV3/InceptionV3/Mixed_5d/Branch_2/Conv2d_0b_3x3/convolution/Transpose15519_const" type="Const" version="opset1">
			<data element_type="f32" offset="3329680" shape="96,64,3,3" size="221184"/>
			<output>
				<port id="0" names="InceptionV3/Mixed_5d/Branch_2/Conv2d_0b_3x3/weights/read:0" precision="FP32">
					<dim>96</dim>
					<dim>64</dim>
					<dim>3</dim>
					<dim>3</dim>
				</port>
			</output>
		</layer>
		<layer id="127" name="InceptionV3/InceptionV3/Mixed_5d/Branch_2/Conv2d_0b_3x3/convolution" type="Convolution" version="opset1">
			<data auto_pad="same_upper" dilations="1,1" pads_begin="0,0" pads_end="0,0" strides="1,1"/>
			<input>
				<port id="0">
					<dim>1</dim>
					<dim>64</dim>
					<dim>35</dim>
					<dim>35</dim>
				</port>
				<port id="1">
					<dim>96</dim>
					<dim>64</dim>
					<dim>3</dim>
					<dim>3</dim>
				</port>
			</input>
			<output>
				<port id="2" names="InceptionV3/InceptionV3/Mixed_5d/Branch_2/Conv2d_0b_3x3/BatchNorm/batchnorm/mul:0" precision="FP32">
					<dim>1</dim>
					<dim>96</dim>
					<dim>35</dim>
					<dim>35</dim>
				</port>
			</output>
		</layer>
		<layer id="128" name="InceptionV3/InceptionV3/Mixed_5d/Branch_2/Conv2d_0b_3x3/BatchNorm/batchnorm/sub/EltwiseUnsqueeze11861_const" type="Const" version="opset1">
			<data element_type="f32" offset="3550864" shape="1,96,1,1" size="384"/>
			<output>
				<port id="0" names="InceptionV3/InceptionV3/Mixed_5d/Branch_2/Conv2d_0b_3x3/BatchNorm/batchnorm/sub:0" precision="FP32">
					<dim>1</dim>
					<dim>96</dim>
					<dim>1</dim>
					<dim>1</dim>
				</port>
			</output>
		</layer>
		<layer id="129" name="InceptionV3/InceptionV3/Mixed_5d/Branch_2/Conv2d_0b_3x3/BatchNorm/batchnorm/add_1" type="Add" version="opset1">
			<data auto_broadcast="numpy"/>
			<input>
				<port id="0">
					<dim>1</dim>
					<dim>96</dim>
					<dim>35</dim>
					<dim>35</dim>
				</port>
				<port id="1">
					<dim>1</dim>
					<dim>96</dim>
					<dim>1</dim>
					<dim>1</dim>
				</port>
			</input>
			<output>
				<port id="2" names="InceptionV3/InceptionV3/Mixed_5d/Branch_2/Conv2d_0b_3x3/BatchNorm/batchnorm/add_1:0" precision="FP32">
					<dim>1</dim>
					<dim>96</dim>
					<dim>35</dim>
					<dim>35</dim>
				</port>
			</output>
		</layer>
		<layer id="130" name="InceptionV3/InceptionV3/Mixed_5d/Branch_2/Conv2d_0b_3x3/Relu" type="ReLU" version="opset1">
			<input>
				<port id="0">
					<dim>1</dim>
					<dim>96</dim>
					<dim>35</dim>
					<dim>35</dim>
				</port>
			</input>
			<output>
				<port id="1" names="InceptionV3/InceptionV3/Mixed_5d/Branch_2/Conv2d_0b_3x3/Relu:0" precision="FP32">
					<dim>1</dim>
					<dim>96</dim>
					<dim>35</dim>
					<dim>35</dim>
				</port>
			</output>
		</layer>
		<layer id="131" name="InceptionV3/InceptionV3/Mixed_5d/Branch_2/Conv2d_0c_3x3/convolution/Transpose15523_const" type="Const" version="opset1">
			<data element_type="f32" offset="3551248" shape="96,96,3,3" size="331776"/>
			<output>
				<port id="0" names="InceptionV3/Mixed_5d/Branch_2/Conv2d_0c_3x3/weights/read:0" precision="FP32">
					<dim>96</dim>
					<dim>96</dim>
					<dim>3</dim>
					<dim>3</dim>
				</port>
			</output>
		</layer>
		<layer id="132" name="InceptionV3/InceptionV3/Mixed_5d/Branch_2/Conv2d_0c_3x3/convolution" type="Convolution" version="opset1">
			<data auto_pad="same_upper" dilations="1,1" pads_begin="0,0" pads_end="0,0" strides="1,1"/>
			<input>
				<port id="0">
					<dim>1</dim>
					<dim>96</dim>
					<dim>35</dim>
					<dim>35</dim>
				</port>
				<port id="1">
					<dim>96</dim>
					<dim>96</dim>
					<dim>3</dim>
					<dim>3</dim>
				</port>
			</input>
			<output>
				<port id="2" names="InceptionV3/InceptionV3/Mixed_5d/Branch_2/Conv2d_0c_3x3/BatchNorm/batchnorm/mul:0" precision="FP32">
					<dim>1</dim>
					<dim>96</dim>
					<dim>35</dim>
					<dim>35</dim>
				</port>
			</output>
		</layer>
		<layer id="133" name="InceptionV3/InceptionV3/Mixed_5d/Branch_2/Conv2d_0c_3x3/BatchNorm/batchnorm/sub/EltwiseUnsqueeze11869_const" type="Const" version="opset1">
			<data element_type="f32" offset="3883024" shape="1,96,1,1" size="384"/>
			<output>
				<port id="0" names="InceptionV3/InceptionV3/Mixed_5d/Branch_2/Conv2d_0c_3x3/BatchNorm/batchnorm/sub:0" precision="FP32">
					<dim>1</dim>
					<dim>96</dim>
					<dim>1</dim>
					<dim>1</dim>
				</port>
			</output>
		</layer>
		<layer id="134" name="InceptionV3/InceptionV3/Mixed_5d/Branch_2/Conv2d_0c_3x3/BatchNorm/batchnorm/add_1" type="Add" version="opset1">
			<data auto_broadcast="numpy"/>
			<input>
				<port id="0">
					<dim>1</dim>
					<dim>96</dim>
					<dim>35</dim>
					<dim>35</dim>
				</port>
				<port id="1">
					<dim>1</dim>
					<dim>96</dim>
					<dim>1</dim>
					<dim>1</dim>
				</port>
			</input>
			<output>
				<port id="2" names="InceptionV3/InceptionV3/Mixed_5d/Branch_2/Conv2d_0c_3x3/BatchNorm/batchnorm/add_1:0" precision="FP32">
					<dim>1</dim>
					<dim>96</dim>
					<dim>35</dim>
					<dim>35</dim>
				</port>
			</output>
		</layer>
		<layer id="135" name="InceptionV3/InceptionV3/Mixed_5d/Branch_2/Conv2d_0c_3x3/Relu" type="ReLU" version="opset1">
			<input>
				<port id="0">
					<dim>1</dim>
					<dim>96</dim>
					<dim>35</dim>
					<dim>35</dim>
				</port>
			</input>
			<output>
				<port id="1" names="InceptionV3/InceptionV3/Mixed_5d/Branch_2/Conv2d_0c_3x3/Relu:0" precision="FP32">
					<dim>1</dim>
					<dim>96</dim>
					<dim>35</dim>
					<dim>35</dim>
				</port>
			</output>
		</layer>
		<layer id="136" name="InceptionV3/InceptionV3/Mixed_5d/Branch_3/AvgPool_0a_3x3/AvgPool" type="AvgPool" version="opset1">
			<data auto_pad="same_upper" exclude-pad="true" kernel="3,3" pads_begin="1,1" pads_end="1,1" strides="1,1"/>
			<input>
				<port id="0">
					<dim>1</dim>
					<dim>288</dim>
					<dim>35</dim>
					<dim>35</dim>
				</port>
			</input>
			<output>
				<port id="1" names="InceptionV3/InceptionV3/Mixed_5d/Branch_3/AvgPool_0a_3x3/AvgPool:0" precision="FP32">
					<dim>1</dim>
					<dim>288</dim>
					<dim>35</dim>
					<dim>35</dim>
				</port>
			</output>
		</layer>
		<layer id="137" name="InceptionV3/InceptionV3/Mixed_5d/Branch_3/Conv2d_0b_1x1/convolution/Transpose15527_const" type="Const" version="opset1">
			<data element_type="f32" offset="3883408" shape="64,288,1,1" size="73728"/>
			<output>
				<port id="0" names="InceptionV3/Mixed_5d/Branch_3/Conv2d_0b_1x1/weights/read:0" precision="FP32">
					<dim>64</dim>
					<dim>288</dim>
					<dim>1</dim>
					<dim>1</dim>
				</port>
			</output>
		</layer>
		<layer id="138" name="InceptionV3/InceptionV3/Mixed_5d/Branch_3/Conv2d_0b_1x1/convolution" type="Convolution" version="opset1">
			<data auto_pad="same_upper" dilations="1,1" pads_begin="0,0" pads_end="0,0" strides="1,1"/>
			<input>
				<port id="0">
					<dim>1</dim>
					<dim>288</dim>
					<dim>35</dim>
					<dim>35</dim>
				</port>
				<port id="1">
					<dim>64</dim>
					<dim>288</dim>
					<dim>1</dim>
					<dim>1</dim>
				</port>
			</input>
			<output>
				<port id="2" names="InceptionV3/InceptionV3/Mixed_5d/Branch_3/Conv2d_0b_1x1/BatchNorm/batchnorm/mul:0" precision="FP32">
					<dim>1</dim>
					<dim>64</dim>
					<dim>35</dim>
					<dim>35</dim>
				</port>
			</output>
		</layer>
		<layer id="139" name="InceptionV3/InceptionV3/Mixed_5d/Branch_3/Conv2d_0b_1x1/BatchNorm/batchnorm/sub/EltwiseUnsqueeze11877_const" type="Const" version="opset1">
			<data element_type="f32" offset="3957136" shape="1,64,1,1" size="256"/>
			<output>
				<port id="0" names="InceptionV3/InceptionV3/Mixed_5d/Branch_3/Conv2d_0b_1x1/BatchNorm/batchnorm/sub:0" precision="FP32">
					<dim>1</dim>
					<dim>64</dim>
					<dim>1</dim>
					<dim>1</dim>
				</port>
			</output>
		</layer>
		<layer id="140" name="InceptionV3/InceptionV3/Mixed_5d/Branch_3/Conv2d_0b_1x1/BatchNorm/batchnorm/add_1" type="Add" version="opset1">
			<data auto_broadcast="numpy"/>
			<input>
				<port id="0">
					<dim>1</dim>
					<dim>64</dim>
					<dim>35</dim>
					<dim>35</dim>
				</port>
				<port id="1">
					<dim>1</dim>
					<dim>64</dim>
					<dim>1</dim>
					<dim>1</dim>
				</port>
			</input>
			<output>
				<port id="2" names="InceptionV3/InceptionV3/Mixed_5d/Branch_3/Conv2d_0b_1x1/BatchNorm/batchnorm/add_1:0" precision="FP32">
					<dim>1</dim>
					<dim>64</dim>
					<dim>35</dim>
					<dim>35</dim>
				</port>
			</output>
		</layer>
		<layer id="141" name="InceptionV3/InceptionV3/Mixed_5d/Branch_3/Conv2d_0b_1x1/Relu" type="ReLU" version="opset1">
			<input>
				<port id="0">
					<dim>1</dim>
					<dim>64</dim>
					<dim>35</dim>
					<dim>35</dim>
				</port>
			</input>
			<output>
				<port id="1" names="InceptionV3/InceptionV3/Mixed_5d/Branch_3/Conv2d_0b_1x1/Relu:0" precision="FP32">
					<dim>1</dim>
					<dim>64</dim>
					<dim>35</dim>
					<dim>35</dim>
				</port>
			</output>
		</layer>
		<layer id="142" name="InceptionV3/InceptionV3/Mixed_5d/concat_v2" type="Concat" version="opset1">
			<data axis="1"/>
			<input>
				<port id="0">
					<dim>1</dim>
					<dim>64</dim>
					<dim>35</dim>
					<dim>35</dim>
				</port>
				<port id="1">
					<dim>1</dim>
					<dim>64</dim>
					<dim>35</dim>
					<dim>35</dim>
				</port>
				<port id="2">
					<dim>1</dim>
					<dim>96</dim>
					<dim>35</dim>
					<dim>35</dim>
				</port>
				<port id="3">
					<dim>1</dim>
					<dim>64</dim>
					<dim>35</dim>
					<dim>35</dim>
				</port>
			</input>
			<output>
				<port id="4" names="InceptionV3/InceptionV3/Mixed_5d/concat_v2:0" precision="FP32">
					<dim>1</dim>
					<dim>288</dim>
					<dim>35</dim>
					<dim>35</dim>
				</port>
			</output>
		</layer>
		<layer id="143" name="InceptionV3/InceptionV3/Mixed_6a/Branch_0/Conv2d_1a_1x1/convolution/Transpose15531_const" type="Const" version="opset1">
			<data element_type="f32" offset="3957392" shape="384,288,3,3" size="3981312"/>
			<output>
				<port id="0" names="InceptionV3/Mixed_6a/Branch_0/Conv2d_1a_1x1/weights/read:0" precision="FP32">
					<dim>384</dim>
					<dim>288</dim>
					<dim>3</dim>
					<dim>3</dim>
				</port>
			</output>
		</layer>
		<layer id="144" name="InceptionV3/InceptionV3/Mixed_6a/Branch_0/Conv2d_1a_1x1/convolution" type="Convolution" version="opset1">
			<data auto_pad="valid" dilations="1,1" pads_begin="0,0" pads_end="0,0" strides="2,2"/>
			<input>
				<port id="0">
					<dim>1</dim>
					<dim>288</dim>
					<dim>35</dim>
					<dim>35</dim>
				</port>
				<port id="1">
					<dim>384</dim>
					<dim>288</dim>
					<dim>3</dim>
					<dim>3</dim>
				</port>
			</input>
			<output>
				<port id="2" names="InceptionV3/InceptionV3/Mixed_6a/Branch_0/Conv2d_1a_1x1/BatchNorm/batchnorm/mul:0" precision="FP32">
					<dim>1</dim>
					<dim>384</dim>
					<dim>17</dim>
					<dim>17</dim>
				</port>
			</output>
		</layer>
		<layer id="145" name="InceptionV3/InceptionV3/Mixed_6a/Branch_0/Conv2d_1a_1x1/BatchNorm/batchnorm/sub/EltwiseUnsqueeze11885_const" type="Const" version="opset1">
			<data element_type="f32" offset="7938704" shape="1,384,1,1" size="1536"/>
			<output>
				<port id="0" names="InceptionV3/InceptionV3/Mixed_6a/Branch_0/Conv2d_1a_1x1/BatchNorm/batchnorm/sub:0" precision="FP32">
					<dim>1</dim>
					<dim>384</dim>
					<dim>1</dim>
					<dim>1</dim>
				</port>
			</output>
		</layer>
		<layer id="146" name="InceptionV3/InceptionV3/Mixed_6a/Branch_0/Conv2d_1a_1x1/BatchNorm/batchnorm/add_1" type="Add" version="opset1">
			<data auto_broadcast="numpy"/>
			<input>
				<port id="0">
					<dim>1</dim>
					<dim>384</dim>
					<dim>17</dim>
					<dim>17</dim>
				</port>
				<port id="1">
					<dim>1</dim>
					<dim>384</dim>
					<dim>1</dim>
					<dim>1</dim>
				</port>
			</input>
			<output>
				<port id="2" names="InceptionV3/InceptionV3/Mixed_6a/Branch_0/Conv2d_1a_1x1/BatchNorm/batchnorm/add_1:0" precision="FP32">
					<dim>1</dim>
					<dim>384</dim>
					<dim>17</dim>
					<dim>17</dim>
				</port>
			</output>
		</layer>
		<layer id="147" name="InceptionV3/InceptionV3/Mixed_6a/Branch_0/Conv2d_1a_1x1/Relu" type="ReLU" version="opset1">
			<input>
				<port id="0">
					<dim>1</dim>
					<dim>384</dim>
					<dim>17</dim>
					<dim>17</dim>
				</port>
			</input>
			<output>
				<port id="1" names="InceptionV3/InceptionV3/Mixed_6a/Branch_0/Conv2d_1a_1x1/Relu:0" precision="FP32">
					<dim>1</dim>
					<dim>384</dim>
					<dim>17</dim>
					<dim>17</dim>
				</port>
			</output>
		</layer>
		<layer id="148" name="InceptionV3/InceptionV3/Mixed_6a/Branch_1/Conv2d_0a_1x1/convolution/Transpose15535_const" type="Const" version="opset1">
			<data element_type="f32" offset="7940240" shape="64,288,1,1" size="73728"/>
			<output>
				<port id="0" names="InceptionV3/Mixed_6a/Branch_1/Conv2d_0a_1x1/weights/read:0" precision="FP32">
					<dim>64</dim>
					<dim>288</dim>
					<dim>1</dim>
					<dim>1</dim>
				</port>
			</output>
		</layer>
		<layer id="149" name="InceptionV3/InceptionV3/Mixed_6a/Branch_1/Conv2d_0a_1x1/convolution" type="Convolution" version="opset1">
			<data auto_pad="same_upper" dilations="1,1" pads_begin="0,0" pads_end="0,0" strides="1,1"/>
			<input>
				<port id="0">
					<dim>1</dim>
					<dim>288</dim>
					<dim>35</dim>
					<dim>35</dim>
				</port>
				<port id="1">
					<dim>64</dim>
					<dim>288</dim>
					<dim>1</dim>
					<dim>1</dim>
				</port>
			</input>
			<output>
				<port id="2" names="InceptionV3/InceptionV3/Mixed_6a/Branch_1/Conv2d_0a_1x1/BatchNorm/batchnorm/mul:0" precision="FP32">
					<dim>1</dim>
					<dim>64</dim>
					<dim>35</dim>
					<dim>35</dim>
				</port>
			</output>
		</layer>
		<layer id="150" name="InceptionV3/InceptionV3/Mixed_6a/Branch_1/Conv2d_0a_1x1/BatchNorm/batchnorm/sub/EltwiseUnsqueeze11893_const" type="Const" version="opset1">
			<data element_type="f32" offset="8013968" shape="1,64,1,1" size="256"/>
			<output>
				<port id="0" names="InceptionV3/InceptionV3/Mixed_6a/Branch_1/Conv2d_0a_1x1/BatchNorm/batchnorm/sub:0" precision="FP32">
					<dim>1</dim>
					<dim>64</dim>
					<dim>1</dim>
					<dim>1</dim>
				</port>
			</output>
		</layer>
		<layer id="151" name="InceptionV3/InceptionV3/Mixed_6a/Branch_1/Conv2d_0a_1x1/BatchNorm/batchnorm/add_1" type="Add" version="opset1">
			<data auto_broadcast="numpy"/>
			<input>
				<port id="0">
					<dim>1</dim>
					<dim>64</dim>
					<dim>35</dim>
					<dim>35</dim>
				</port>
				<port id="1">
					<dim>1</dim>
					<dim>64</dim>
					<dim>1</dim>
					<dim>1</dim>
				</port>
			</input>
			<output>
				<port id="2" names="InceptionV3/InceptionV3/Mixed_6a/Branch_1/Conv2d_0a_1x1/BatchNorm/batchnorm/add_1:0" precision="FP32">
					<dim>1</dim>
					<dim>64</dim>
					<dim>35</dim>
					<dim>35</dim>
				</port>
			</output>
		</layer>
		<layer id="152" name="InceptionV3/InceptionV3/Mixed_6a/Branch_1/Conv2d_0a_1x1/Relu" type="ReLU" version="opset1">
			<input>
				<port id="0">
					<dim>1</dim>
					<dim>64</dim>
					<dim>35</dim>
					<dim>35</dim>
				</port>
			</input>
			<output>
				<port id="1" names="InceptionV3/InceptionV3/Mixed_6a/Branch_1/Conv2d_0a_1x1/Relu:0" precision="FP32">
					<dim>1</dim>
					<dim>64</dim>
					<dim>35</dim>
					<dim>35</dim>
				</port>
			</output>
		</layer>
		<layer id="153" name="InceptionV3/InceptionV3/Mixed_6a/Branch_1/Conv2d_0b_3x3/convolution/Transpose15539_const" type="Const" version="opset1">
			<data element_type="f32" offset="8014224" shape="96,64,3,3" size="221184"/>
			<output>
				<port id="0" names="InceptionV3/Mixed_6a/Branch_1/Conv2d_0b_3x3/weights/read:0" precision="FP32">
					<dim>96</dim>
					<dim>64</dim>
					<dim>3</dim>
					<dim>3</dim>
				</port>
			</output>
		</layer>
		<layer id="154" name="InceptionV3/InceptionV3/Mixed_6a/Branch_1/Conv2d_0b_3x3/convolution" type="Convolution" version="opset1">
			<data auto_pad="same_upper" dilations="1,1" pads_begin="0,0" pads_end="0,0" strides="1,1"/>
			<input>
				<port id="0">
					<dim>1</dim>
					<dim>64</dim>
					<dim>35</dim>
					<dim>35</dim>
				</port>
				<port id="1">
					<dim>96</dim>
					<dim>64</dim>
					<dim>3</dim>
					<dim>3</dim>
				</port>
			</input>
			<output>
				<port id="2" names="InceptionV3/InceptionV3/Mixed_6a/Branch_1/Conv2d_0b_3x3/BatchNorm/batchnorm/mul:0" precision="FP32">
					<dim>1</dim>
					<dim>96</dim>
					<dim>35</dim>
					<dim>35</dim>
				</port>
			</output>
		</layer>
		<layer id="155" name="InceptionV3/InceptionV3/Mixed_6a/Branch_1/Conv2d_0b_3x3/BatchNorm/batchnorm/sub/EltwiseUnsqueeze11901_const" type="Const" version="opset1">
			<data element_type="f32" offset="8235408" shape="1,96,1,1" size="384"/>
			<output>
				<port id="0" names="InceptionV3/InceptionV3/Mixed_6a/Branch_1/Conv2d_0b_3x3/BatchNorm/batchnorm/sub:0" precision="FP32">
					<dim>1</dim>
					<dim>96</dim>
					<dim>1</dim>
					<dim>1</dim>
				</port>
			</output>
		</layer>
		<layer id="156" name="InceptionV3/InceptionV3/Mixed_6a/Branch_1/Conv2d_0b_3x3/BatchNorm/batchnorm/add_1" type="Add" version="opset1">
			<data auto_broadcast="numpy"/>
			<input>
				<port id="0">
					<dim>1</dim>
					<dim>96</dim>
					<dim>35</dim>
					<dim>35</dim>
				</port>
				<port id="1">
					<dim>1</dim>
					<dim>96</dim>
					<dim>1</dim>
					<dim>1</dim>
				</port>
			</input>
			<output>
				<port id="2" names="InceptionV3/InceptionV3/Mixed_6a/Branch_1/Conv2d_0b_3x3/BatchNorm/batchnorm/add_1:0" precision="FP32">
					<dim>1</dim>
					<dim>96</dim>
					<dim>35</dim>
					<dim>35</dim>
				</port>
			</output>
		</layer>
		<layer id="157" name="InceptionV3/InceptionV3/Mixed_6a/Branch_1/Conv2d_0b_3x3/Relu" type="ReLU" version="opset1">
			<input>
				<port id="0">
					<dim>1</dim>
					<dim>96</dim>
					<dim>35</dim>
					<dim>35</dim>
				</port>
			</input>
			<output>
				<port id="1" names="InceptionV3/InceptionV3/Mixed_6a/Branch_1/Conv2d_0b_3x3/Relu:0" precision="FP32">
					<dim>1</dim>
					<dim>96</dim>
					<dim>35</dim>
					<dim>35</dim>
				</port>
			</output>
		</layer>
		<layer id="158" name="InceptionV3/InceptionV3/Mixed_6a/Branch_1/Conv2d_1a_1x1/convolution/Transpose15543_const" type="Const" version="opset1">
			<data element_type="f32" offset="8235792" shape="96,96,3,3" size="331776"/>
			<output>
				<port id="0" names="InceptionV3/Mixed_6a/Branch_1/Conv2d_1a_1x1/weights/read:0" precision="FP32">
					<dim>96</dim>
					<dim>96</dim>
					<dim>3</dim>
					<dim>3</dim>
				</port>
			</output>
		</layer>
		<layer id="159" name="InceptionV3/InceptionV3/Mixed_6a/Branch_1/Conv2d_1a_1x1/convolution" type="Convolution" version="opset1">
			<data auto_pad="valid" dilations="1,1" pads_begin="0,0" pads_end="0,0" strides="2,2"/>
			<input>
				<port id="0">
					<dim>1</dim>
					<dim>96</dim>
					<dim>35</dim>
					<dim>35</dim>
				</port>
				<port id="1">
					<dim>96</dim>
					<dim>96</dim>
					<dim>3</dim>
					<dim>3</dim>
				</port>
			</input>
			<output>
				<port id="2" names="InceptionV3/InceptionV3/Mixed_6a/Branch_1/Conv2d_1a_1x1/BatchNorm/batchnorm/mul:0" precision="FP32">
					<dim>1</dim>
					<dim>96</dim>
					<dim>17</dim>
					<dim>17</dim>
				</port>
			</output>
		</layer>
		<layer id="160" name="InceptionV3/InceptionV3/Mixed_6a/Branch_1/Conv2d_1a_1x1/BatchNorm/batchnorm/sub/EltwiseUnsqueeze11909_const" type="Const" version="opset1">
			<data element_type="f32" offset="8567568" shape="1,96,1,1" size="384"/>
			<output>
				<port id="0" names="InceptionV3/InceptionV3/Mixed_6a/Branch_1/Conv2d_1a_1x1/BatchNorm/batchnorm/sub:0" precision="FP32">
					<dim>1</dim>
					<dim>96</dim>
					<dim>1</dim>
					<dim>1</dim>
				</port>
			</output>
		</layer>
		<layer id="161" name="InceptionV3/InceptionV3/Mixed_6a/Branch_1/Conv2d_1a_1x1/BatchNorm/batchnorm/add_1" type="Add" version="opset1">
			<data auto_broadcast="numpy"/>
			<input>
				<port id="0">
					<dim>1</dim>
					<dim>96</dim>
					<dim>17</dim>
					<dim>17</dim>
				</port>
				<port id="1">
					<dim>1</dim>
					<dim>96</dim>
					<dim>1</dim>
					<dim>1</dim>
				</port>
			</input>
			<output>
				<port id="2" names="InceptionV3/InceptionV3/Mixed_6a/Branch_1/Conv2d_1a_1x1/BatchNorm/batchnorm/add_1:0" precision="FP32">
					<dim>1</dim>
					<dim>96</dim>
					<dim>17</dim>
					<dim>17</dim>
				</port>
			</output>
		</layer>
		<layer id="162" name="InceptionV3/InceptionV3/Mixed_6a/Branch_1/Conv2d_1a_1x1/Relu" type="ReLU" version="opset1">
			<input>
				<port id="0">
					<dim>1</dim>
					<dim>96</dim>
					<dim>17</dim>
					<dim>17</dim>
				</port>
			</input>
			<output>
				<port id="1" names="InceptionV3/InceptionV3/Mixed_6a/Branch_1/Conv2d_1a_1x1/Relu:0" precision="FP32">
					<dim>1</dim>
					<dim>96</dim>
					<dim>17</dim>
					<dim>17</dim>
				</port>
			</output>
		</layer>
		<layer id="163" name="InceptionV3/InceptionV3/Mixed_6a/Branch_2/MaxPool_1a_3x3/MaxPool" type="MaxPool" version="opset1">
			<data auto_pad="valid" kernel="3,3" pads_begin="0,0" pads_end="0,0" strides="2,2"/>
			<input>
				<port id="0">
					<dim>1</dim>
					<dim>288</dim>
					<dim>35</dim>
					<dim>35</dim>
				</port>
			</input>
			<output>
				<port id="1" names="InceptionV3/InceptionV3/Mixed_6a/Branch_2/MaxPool_1a_3x3/MaxPool:0" precision="FP32">
					<dim>1</dim>
					<dim>288</dim>
					<dim>17</dim>
					<dim>17</dim>
				</port>
			</output>
		</layer>
		<layer id="164" name="InceptionV3/InceptionV3/Mixed_6a/concat_v2" type="Concat" version="opset1">
			<data axis="1"/>
			<input>
				<port id="0">
					<dim>1</dim>
					<dim>384</dim>
					<dim>17</dim>
					<dim>17</dim>
				</port>
				<port id="1">
					<dim>1</dim>
					<dim>96</dim>
					<dim>17</dim>
					<dim>17</dim>
				</port>
				<port id="2">
					<dim>1</dim>
					<dim>288</dim>
					<dim>17</dim>
					<dim>17</dim>
				</port>
			</input>
			<output>
				<port id="3" names="InceptionV3/InceptionV3/Mixed_6a/concat_v2:0" precision="FP32">
					<dim>1</dim>
					<dim>768</dim>
					<dim>17</dim>
					<dim>17</dim>
				</port>
			</output>
		</layer>
		<layer id="165" name="InceptionV3/InceptionV3/Mixed_6b/Branch_0/Conv2d_0a_1x1/convolution/Transpose15547_const" type="Const" version="opset1">
			<data element_type="f32" offset="8567952" shape="192,768,1,1" size="589824"/>
			<output>
				<port id="0" names="InceptionV3/Mixed_6b/Branch_0/Conv2d_0a_1x1/weights/read:0" precision="FP32">
					<dim>192</dim>
					<dim>768</dim>
					<dim>1</dim>
					<dim>1</dim>
				</port>
			</output>
		</layer>
		<layer id="166" name="InceptionV3/InceptionV3/Mixed_6b/Branch_0/Conv2d_0a_1x1/convolution" type="Convolution" version="opset1">
			<data auto_pad="same_upper" dilations="1,1" pads_begin="0,0" pads_end="0,0" strides="1,1"/>
			<input>
				<port id="0">
					<dim>1</dim>
					<dim>768</dim>
					<dim>17</dim>
					<dim>17</dim>
				</port>
				<port id="1">
					<dim>192</dim>
					<dim>768</dim>
					<dim>1</dim>
					<dim>1</dim>
				</port>
			</input>
			<output>
				<port id="2" names="InceptionV3/InceptionV3/Mixed_6b/Branch_0/Conv2d_0a_1x1/BatchNorm/batchnorm/mul:0" precision="FP32">
					<dim>1</dim>
					<dim>192</dim>
					<dim>17</dim>
					<dim>17</dim>
				</port>
			</output>
		</layer>
		<layer id="167" name="InceptionV3/InceptionV3/Mixed_6b/Branch_0/Conv2d_0a_1x1/BatchNorm/batchnorm/sub/EltwiseUnsqueeze11917_const" type="Const" version="opset1">
			<data element_type="f32" offset="9157776" shape="1,192,1,1" size="768"/>
			<output>
				<port id="0" names="InceptionV3/InceptionV3/Mixed_6b/Branch_0/Conv2d_0a_1x1/BatchNorm/batchnorm/sub:0" precision="FP32">
					<dim>1</dim>
					<dim>192</dim>
					<dim>1</dim>
					<dim>1</dim>
				</port>
			</output>
		</layer>
		<layer id="168" name="InceptionV3/InceptionV3/Mixed_6b/Branch_0/Conv2d_0a_1x1/BatchNorm/batchnorm/add_1" type="Add" version="opset1">
			<data auto_broadcast="numpy"/>
			<input>
				<port id="0">
					<dim>1</dim>
					<dim>192</dim>
					<dim>17</dim>
					<dim>17</dim>
				</port>
				<port id="1">
					<dim>1</dim>
					<dim>192</dim>
					<dim>1</dim>
					<dim>1</dim>
				</port>
			</input>
			<output>
				<port id="2" names="InceptionV3/InceptionV3/Mixed_6b/Branch_0/Conv2d_0a_1x1/BatchNorm/batchnorm/add_1:0" precision="FP32">
					<dim>1</dim>
					<dim>192</dim>
					<dim>17</dim>
					<dim>17</dim>
				</port>
			</output>
		</layer>
		<layer id="169" name="InceptionV3/InceptionV3/Mixed_6b/Branch_0/Conv2d_0a_1x1/Relu" type="ReLU" version="opset1">
			<input>
				<port id="0">
					<dim>1</dim>
					<dim>192</dim>
					<dim>17</dim>
					<dim>17</dim>
				</port>
			</input>
			<output>
				<port id="1" names="InceptionV3/InceptionV3/Mixed_6b/Branch_0/Conv2d_0a_1x1/Relu:0" precision="FP32">
					<dim>1</dim>
					<dim>192</dim>
					<dim>17</dim>
					<dim>17</dim>
				</port>
			</output>
		</layer>
		<layer id="170" name="InceptionV3/InceptionV3/Mixed_6b/Branch_1/Conv2d_0a_1x1/convolution/Transpose15551_const" type="Const" version="opset1">
			<data element_type="f32" offset="9158544" shape="128,768,1,1" size="393216"/>
			<output>
				<port id="0" names="InceptionV3/Mixed_6b/Branch_1/Conv2d_0a_1x1/weights/read:0" precision="FP32">
					<dim>128</dim>
					<dim>768</dim>
					<dim>1</dim>
					<dim>1</dim>
				</port>
			</output>
		</layer>
		<layer id="171" name="InceptionV3/InceptionV3/Mixed_6b/Branch_1/Conv2d_0a_1x1/convolution" type="Convolution" version="opset1">
			<data auto_pad="same_upper" dilations="1,1" pads_begin="0,0" pads_end="0,0" strides="1,1"/>
			<input>
				<port id="0">
					<dim>1</dim>
					<dim>768</dim>
					<dim>17</dim>
					<dim>17</dim>
				</port>
				<port id="1">
					<dim>128</dim>
					<dim>768</dim>
					<dim>1</dim>
					<dim>1</dim>
				</port>
			</input>
			<output>
				<port id="2" names="InceptionV3/InceptionV3/Mixed_6b/Branch_1/Conv2d_0a_1x1/BatchNorm/batchnorm/mul:0" precision="FP32">
					<dim>1</dim>
					<dim>128</dim>
					<dim>17</dim>
					<dim>17</dim>
				</port>
			</output>
		</layer>
		<layer id="172" name="InceptionV3/InceptionV3/Mixed_6b/Branch_1/Conv2d_0a_1x1/BatchNorm/batchnorm/sub/EltwiseUnsqueeze11925_const" type="Const" version="opset1">
			<data element_type="f32" offset="9551760" shape="1,128,1,1" size="512"/>
			<output>
				<port id="0" names="InceptionV3/InceptionV3/Mixed_6b/Branch_1/Conv2d_0a_1x1/BatchNorm/batchnorm/sub:0" precision="FP32">
					<dim>1</dim>
					<dim>128</dim>
					<dim>1</dim>
					<dim>1</dim>
				</port>
			</output>
		</layer>
		<layer id="173" name="InceptionV3/InceptionV3/Mixed_6b/Branch_1/Conv2d_0a_1x1/BatchNorm/batchnorm/add_1" type="Add" version="opset1">
			<data auto_broadcast="numpy"/>
			<input>
				<port id="0">
					<dim>1</dim>
					<dim>128</dim>
					<dim>17</dim>
					<dim>17</dim>
				</port>
				<port id="1">
					<dim>1</dim>
					<dim>128</dim>
					<dim>1</dim>
					<dim>1</dim>
				</port>
			</input>
			<output>
				<port id="2" names="InceptionV3/InceptionV3/Mixed_6b/Branch_1/Conv2d_0a_1x1/BatchNorm/batchnorm/add_1:0" precision="FP32">
					<dim>1</dim>
					<dim>128</dim>
					<dim>17</dim>
					<dim>17</dim>
				</port>
			</output>
		</layer>
		<layer id="174" name="InceptionV3/InceptionV3/Mixed_6b/Branch_1/Conv2d_0a_1x1/Relu" type="ReLU" version="opset1">
			<input>
				<port id="0">
					<dim>1</dim>
					<dim>128</dim>
					<dim>17</dim>
					<dim>17</dim>
				</port>
			</input>
			<output>
				<port id="1" names="InceptionV3/InceptionV3/Mixed_6b/Branch_1/Conv2d_0a_1x1/Relu:0" precision="FP32">
					<dim>1</dim>
					<dim>128</dim>
					<dim>17</dim>
					<dim>17</dim>
				</port>
			</output>
		</layer>
		<layer id="175" name="InceptionV3/InceptionV3/Mixed_6b/Branch_1/Conv2d_0b_1x7/convolution/Transpose15555_const" type="Const" version="opset1">
			<data element_type="f32" offset="9552272" shape="128,128,1,7" size="458752"/>
			<output>
				<port id="0" names="InceptionV3/Mixed_6b/Branch_1/Conv2d_0b_1x7/weights/read:0" precision="FP32">
					<dim>128</dim>
					<dim>128</dim>
					<dim>1</dim>
					<dim>7</dim>
				</port>
			</output>
		</layer>
		<layer id="176" name="InceptionV3/InceptionV3/Mixed_6b/Branch_1/Conv2d_0b_1x7/convolution" type="Convolution" version="opset1">
			<data auto_pad="same_upper" dilations="1,1" pads_begin="0,0" pads_end="0,0" strides="1,1"/>
			<input>
				<port id="0">
					<dim>1</dim>
					<dim>128</dim>
					<dim>17</dim>
					<dim>17</dim>
				</port>
				<port id="1">
					<dim>128</dim>
					<dim>128</dim>
					<dim>1</dim>
					<dim>7</dim>
				</port>
			</input>
			<output>
				<port id="2" names="InceptionV3/InceptionV3/Mixed_6b/Branch_1/Conv2d_0b_1x7/BatchNorm/batchnorm/mul:0" precision="FP32">
					<dim>1</dim>
					<dim>128</dim>
					<dim>17</dim>
					<dim>17</dim>
				</port>
			</output>
		</layer>
		<layer id="177" name="InceptionV3/InceptionV3/Mixed_6b/Branch_1/Conv2d_0b_1x7/BatchNorm/batchnorm/sub/EltwiseUnsqueeze11933_const" type="Const" version="opset1">
			<data element_type="f32" offset="10011024" shape="1,128,1,1" size="512"/>
			<output>
				<port id="0" names="InceptionV3/InceptionV3/Mixed_6b/Branch_1/Conv2d_0b_1x7/BatchNorm/batchnorm/sub:0" precision="FP32">
					<dim>1</dim>
					<dim>128</dim>
					<dim>1</dim>
					<dim>1</dim>
				</port>
			</output>
		</layer>
		<layer id="178" name="InceptionV3/InceptionV3/Mixed_6b/Branch_1/Conv2d_0b_1x7/BatchNorm/batchnorm/add_1" type="Add" version="opset1">
			<data auto_broadcast="numpy"/>
			<input>
				<port id="0">
					<dim>1</dim>
					<dim>128</dim>
					<dim>17</dim>
					<dim>17</dim>
				</port>
				<port id="1">
					<dim>1</dim>
					<dim>128</dim>
					<dim>1</dim>
					<dim>1</dim>
				</port>
			</input>
			<output>
				<port id="2" names="InceptionV3/InceptionV3/Mixed_6b/Branch_1/Conv2d_0b_1x7/BatchNorm/batchnorm/add_1:0" precision="FP32">
					<dim>1</dim>
					<dim>128</dim>
					<dim>17</dim>
					<dim>17</dim>
				</port>
			</output>
		</layer>
		<layer id="179" name="InceptionV3/InceptionV3/Mixed_6b/Branch_1/Conv2d_0b_1x7/Relu" type="ReLU" version="opset1">
			<input>
				<port id="0">
					<dim>1</dim>
					<dim>128</dim>
					<dim>17</dim>
					<dim>17</dim>
				</port>
			</input>
			<output>
				<port id="1" names="InceptionV3/InceptionV3/Mixed_6b/Branch_1/Conv2d_0b_1x7/Relu:0" precision="FP32">
					<dim>1</dim>
					<dim>128</dim>
					<dim>17</dim>
					<dim>17</dim>
				</port>
			</output>
		</layer>
		<layer id="180" name="InceptionV3/InceptionV3/Mixed_6b/Branch_1/Conv2d_0c_7x1/convolution/Transpose15559_const" type="Const" version="opset1">
			<data element_type="f32" offset="10011536" shape="192,128,7,1" size="688128"/>
			<output>
				<port id="0" names="InceptionV3/Mixed_6b/Branch_1/Conv2d_0c_7x1/weights/read:0" precision="FP32">
					<dim>192</dim>
					<dim>128</dim>
					<dim>7</dim>
					<dim>1</dim>
				</port>
			</output>
		</layer>
		<layer id="181" name="InceptionV3/InceptionV3/Mixed_6b/Branch_1/Conv2d_0c_7x1/convolution" type="Convolution" version="opset1">
			<data auto_pad="same_upper" dilations="1,1" pads_begin="0,0" pads_end="0,0" strides="1,1"/>
			<input>
				<port id="0">
					<dim>1</dim>
					<dim>128</dim>
					<dim>17</dim>
					<dim>17</dim>
				</port>
				<port id="1">
					<dim>192</dim>
					<dim>128</dim>
					<dim>7</dim>
					<dim>1</dim>
				</port>
			</input>
			<output>
				<port id="2" names="InceptionV3/InceptionV3/Mixed_6b/Branch_1/Conv2d_0c_7x1/BatchNorm/batchnorm/mul:0" precision="FP32">
					<dim>1</dim>
					<dim>192</dim>
					<dim>17</dim>
					<dim>17</dim>
				</port>
			</output>
		</layer>
		<layer id="182" name="InceptionV3/InceptionV3/Mixed_6b/Branch_1/Conv2d_0c_7x1/BatchNorm/batchnorm/sub/EltwiseUnsqueeze11941_const" type="Const" version="opset1">
			<data element_type="f32" offset="10699664" shape="1,192,1,1" size="768"/>
			<output>
				<port id="0" names="InceptionV3/InceptionV3/Mixed_6b/Branch_1/Conv2d_0c_7x1/BatchNorm/batchnorm/sub:0" precision="FP32">
					<dim>1</dim>
					<dim>192</dim>
					<dim>1</dim>
					<dim>1</dim>
				</port>
			</output>
		</layer>
		<layer id="183" name="InceptionV3/InceptionV3/Mixed_6b/Branch_1/Conv2d_0c_7x1/BatchNorm/batchnorm/add_1" type="Add" version="opset1">
			<data auto_broadcast="numpy"/>
			<input>
				<port id="0">
					<dim>1</dim>
					<dim>192</dim>
					<dim>17</dim>
					<dim>17</dim>
				</port>
				<port id="1">
					<dim>1</dim>
					<dim>192</dim>
					<dim>1</dim>
					<dim>1</dim>
				</port>
			</input>
			<output>
				<port id="2" names="InceptionV3/InceptionV3/Mixed_6b/Branch_1/Conv2d_0c_7x1/BatchNorm/batchnorm/add_1:0" precision="FP32">
					<dim>1</dim>
					<dim>192</dim>
					<dim>17</dim>
					<dim>17</dim>
				</port>
			</output>
		</layer>
		<layer id="184" name="InceptionV3/InceptionV3/Mixed_6b/Branch_1/Conv2d_0c_7x1/Relu" type="ReLU" version="opset1">
			<input>
				<port id="0">
					<dim>1</dim>
					<dim>192</dim>
					<dim>17</dim>
					<dim>17</dim>
				</port>
			</input>
			<output>
				<port id="1" names="InceptionV3/InceptionV3/Mixed_6b/Branch_1/Conv2d_0c_7x1/Relu:0" precision="FP32">
					<dim>1</dim>
					<dim>192</dim>
					<dim>17</dim>
					<dim>17</dim>
				</port>
			</output>
		</layer>
		<layer id="185" name="InceptionV3/InceptionV3/Mixed_6b/Branch_2/Conv2d_0a_1x1/convolution/Transpose15563_const" type="Const" version="opset1">
			<data element_type="f32" offset="10700432" shape="128,768,1,1" size="393216"/>
			<output>
				<port id="0" names="InceptionV3/Mixed_6b/Branch_2/Conv2d_0a_1x1/weights/read:0" precision="FP32">
					<dim>128</dim>
					<dim>768</dim>
					<dim>1</dim>
					<dim>1</dim>
				</port>
			</output>
		</layer>
		<layer id="186" name="InceptionV3/InceptionV3/Mixed_6b/Branch_2/Conv2d_0a_1x1/convolution" type="Convolution" version="opset1">
			<data auto_pad="same_upper" dilations="1,1" pads_begin="0,0" pads_end="0,0" strides="1,1"/>
			<input>
				<port id="0">
					<dim>1</dim>
					<dim>768</dim>
					<dim>17</dim>
					<dim>17</dim>
				</port>
				<port id="1">
					<dim>128</dim>
					<dim>768</dim>
					<dim>1</dim>
					<dim>1</dim>
				</port>
			</input>
			<output>
				<port id="2" names="InceptionV3/InceptionV3/Mixed_6b/Branch_2/Conv2d_0a_1x1/BatchNorm/batchnorm/mul:0" precision="FP32">
					<dim>1</dim>
					<dim>128</dim>
					<dim>17</dim>
					<dim>17</dim>
				</port>
			</output>
		</layer>
		<layer id="187" name="InceptionV3/InceptionV3/Mixed_6b/Branch_2/Conv2d_0a_1x1/BatchNorm/batchnorm/sub/EltwiseUnsqueeze11949_const" type="Const" version="opset1">
			<data element_type="f32" offset="11093648" shape="1,128,1,1" size="512"/>
			<output>
				<port id="0" names="InceptionV3/InceptionV3/Mixed_6b/Branch_2/Conv2d_0a_1x1/BatchNorm/batchnorm/sub:0" precision="FP32">
					<dim>1</dim>
					<dim>128</dim>
					<dim>1</dim>
					<dim>1</dim>
				</port>
			</output>
		</layer>
		<layer id="188" name="InceptionV3/InceptionV3/Mixed_6b/Branch_2/Conv2d_0a_1x1/BatchNorm/batchnorm/add_1" type="Add" version="opset1">
			<data auto_broadcast="numpy"/>
			<input>
				<port id="0">
					<dim>1</dim>
					<dim>128</dim>
					<dim>17</dim>
					<dim>17</dim>
				</port>
				<port id="1">
					<dim>1</dim>
					<dim>128</dim>
					<dim>1</dim>
					<dim>1</dim>
				</port>
			</input>
			<output>
				<port id="2" names="InceptionV3/InceptionV3/Mixed_6b/Branch_2/Conv2d_0a_1x1/BatchNorm/batchnorm/add_1:0" precision="FP32">
					<dim>1</dim>
					<dim>128</dim>
					<dim>17</dim>
					<dim>17</dim>
				</port>
			</output>
		</layer>
		<layer id="189" name="InceptionV3/InceptionV3/Mixed_6b/Branch_2/Conv2d_0a_1x1/Relu" type="ReLU" version="opset1">
			<input>
				<port id="0">
					<dim>1</dim>
					<dim>128</dim>
					<dim>17</dim>
					<dim>17</dim>
				</port>
			</input>
			<output>
				<port id="1" names="InceptionV3/InceptionV3/Mixed_6b/Branch_2/Conv2d_0a_1x1/Relu:0" precision="FP32">
					<dim>1</dim>
					<dim>128</dim>
					<dim>17</dim>
					<dim>17</dim>
				</port>
			</output>
		</layer>
		<layer id="190" name="InceptionV3/InceptionV3/Mixed_6b/Branch_2/Conv2d_0b_7x1/convolution/Transpose15567_const" type="Const" version="opset1">
			<data element_type="f32" offset="11094160" shape="128,128,7,1" size="458752"/>
			<output>
				<port id="0" names="InceptionV3/Mixed_6b/Branch_2/Conv2d_0b_7x1/weights/read:0" precision="FP32">
					<dim>128</dim>
					<dim>128</dim>
					<dim>7</dim>
					<dim>1</dim>
				</port>
			</output>
		</layer>
		<layer id="191" name="InceptionV3/InceptionV3/Mixed_6b/Branch_2/Conv2d_0b_7x1/convolution" type="Convolution" version="opset1">
			<data auto_pad="same_upper" dilations="1,1" pads_begin="0,0" pads_end="0,0" strides="1,1"/>
			<input>
				<port id="0">
					<dim>1</dim>
					<dim>128</dim>
					<dim>17</dim>
					<dim>17</dim>
				</port>
				<port id="1">
					<dim>128</dim>
					<dim>128</dim>
					<dim>7</dim>
					<dim>1</dim>
				</port>
			</input>
			<output>
				<port id="2" names="InceptionV3/InceptionV3/Mixed_6b/Branch_2/Conv2d_0b_7x1/BatchNorm/batchnorm/mul:0" precision="FP32">
					<dim>1</dim>
					<dim>128</dim>
					<dim>17</dim>
					<dim>17</dim>
				</port>
			</output>
		</layer>
		<layer id="192" name="InceptionV3/InceptionV3/Mixed_6b/Branch_2/Conv2d_0b_7x1/BatchNorm/batchnorm/sub/EltwiseUnsqueeze11957_const" type="Const" version="opset1">
			<data element_type="f32" offset="11552912" shape="1,128,1,1" size="512"/>
			<output>
				<port id="0" names="InceptionV3/InceptionV3/Mixed_6b/Branch_2/Conv2d_0b_7x1/BatchNorm/batchnorm/sub:0" precision="FP32">
					<dim>1</dim>
					<dim>128</dim>
					<dim>1</dim>
					<dim>1</dim>
				</port>
			</output>
		</layer>
		<layer id="193" name="InceptionV3/InceptionV3/Mixed_6b/Branch_2/Conv2d_0b_7x1/BatchNorm/batchnorm/add_1" type="Add" version="opset1">
			<data auto_broadcast="numpy"/>
			<input>
				<port id="0">
					<dim>1</dim>
					<dim>128</dim>
					<dim>17</dim>
					<dim>17</dim>
				</port>
				<port id="1">
					<dim>1</dim>
					<dim>128</dim>
					<dim>1</dim>
					<dim>1</dim>
				</port>
			</input>
			<output>
				<port id="2" names="InceptionV3/InceptionV3/Mixed_6b/Branch_2/Conv2d_0b_7x1/BatchNorm/batchnorm/add_1:0" precision="FP32">
					<dim>1</dim>
					<dim>128</dim>
					<dim>17</dim>
					<dim>17</dim>
				</port>
			</output>
		</layer>
		<layer id="194" name="InceptionV3/InceptionV3/Mixed_6b/Branch_2/Conv2d_0b_7x1/Relu" type="ReLU" version="opset1">
			<input>
				<port id="0">
					<dim>1</dim>
					<dim>128</dim>
					<dim>17</dim>
					<dim>17</dim>
				</port>
			</input>
			<output>
				<port id="1" names="InceptionV3/InceptionV3/Mixed_6b/Branch_2/Conv2d_0b_7x1/Relu:0" precision="FP32">
					<dim>1</dim>
					<dim>128</dim>
					<dim>17</dim>
					<dim>17</dim>
				</port>
			</output>
		</layer>
		<layer id="195" name="InceptionV3/InceptionV3/Mixed_6b/Branch_2/Conv2d_0c_1x7/convolution/Transpose15571_const" type="Const" version="opset1">
			<data element_type="f32" offset="11553424" shape="128,128,1,7" size="458752"/>
			<output>
				<port id="0" names="InceptionV3/Mixed_6b/Branch_2/Conv2d_0c_1x7/weights/read:0" precision="FP32">
					<dim>128</dim>
					<dim>128</dim>
					<dim>1</dim>
					<dim>7</dim>
				</port>
			</output>
		</layer>
		<layer id="196" name="InceptionV3/InceptionV3/Mixed_6b/Branch_2/Conv2d_0c_1x7/convolution" type="Convolution" version="opset1">
			<data auto_pad="same_upper" dilations="1,1" pads_begin="0,0" pads_end="0,0" strides="1,1"/>
			<input>
				<port id="0">
					<dim>1</dim>
					<dim>128</dim>
					<dim>17</dim>
					<dim>17</dim>
				</port>
				<port id="1">
					<dim>128</dim>
					<dim>128</dim>
					<dim>1</dim>
					<dim>7</dim>
				</port>
			</input>
			<output>
				<port id="2" names="InceptionV3/InceptionV3/Mixed_6b/Branch_2/Conv2d_0c_1x7/BatchNorm/batchnorm/mul:0" precision="FP32">
					<dim>1</dim>
					<dim>128</dim>
					<dim>17</dim>
					<dim>17</dim>
				</port>
			</output>
		</layer>
		<layer id="197" name="InceptionV3/InceptionV3/Mixed_6b/Branch_2/Conv2d_0c_1x7/BatchNorm/batchnorm/sub/EltwiseUnsqueeze11965_const" type="Const" version="opset1">
			<data element_type="f32" offset="12012176" shape="1,128,1,1" size="512"/>
			<output>
				<port id="0" names="InceptionV3/InceptionV3/Mixed_6b/Branch_2/Conv2d_0c_1x7/BatchNorm/batchnorm/sub:0" precision="FP32">
					<dim>1</dim>
					<dim>128</dim>
					<dim>1</dim>
					<dim>1</dim>
				</port>
			</output>
		</layer>
		<layer id="198" name="InceptionV3/InceptionV3/Mixed_6b/Branch_2/Conv2d_0c_1x7/BatchNorm/batchnorm/add_1" type="Add" version="opset1">
			<data auto_broadcast="numpy"/>
			<input>
				<port id="0">
					<dim>1</dim>
					<dim>128</dim>
					<dim>17</dim>
					<dim>17</dim>
				</port>
				<port id="1">
					<dim>1</dim>
					<dim>128</dim>
					<dim>1</dim>
					<dim>1</dim>
				</port>
			</input>
			<output>
				<port id="2" names="InceptionV3/InceptionV3/Mixed_6b/Branch_2/Conv2d_0c_1x7/BatchNorm/batchnorm/add_1:0" precision="FP32">
					<dim>1</dim>
					<dim>128</dim>
					<dim>17</dim>
					<dim>17</dim>
				</port>
			</output>
		</layer>
		<layer id="199" name="InceptionV3/InceptionV3/Mixed_6b/Branch_2/Conv2d_0c_1x7/Relu" type="ReLU" version="opset1">
			<input>
				<port id="0">
					<dim>1</dim>
					<dim>128</dim>
					<dim>17</dim>
					<dim>17</dim>
				</port>
			</input>
			<output>
				<port id="1" names="InceptionV3/InceptionV3/Mixed_6b/Branch_2/Conv2d_0c_1x7/Relu:0" precision="FP32">
					<dim>1</dim>
					<dim>128</dim>
					<dim>17</dim>
					<dim>17</dim>
				</port>
			</output>
		</layer>
		<layer id="200" name="InceptionV3/InceptionV3/Mixed_6b/Branch_2/Conv2d_0d_7x1/convolution/Transpose15575_const" type="Const" version="opset1">
			<data element_type="f32" offset="12012688" shape="128,128,7,1" size="458752"/>
			<output>
				<port id="0" names="InceptionV3/Mixed_6b/Branch_2/Conv2d_0d_7x1/weights/read:0" precision="FP32">
					<dim>128</dim>
					<dim>128</dim>
					<dim>7</dim>
					<dim>1</dim>
				</port>
			</output>
		</layer>
		<layer id="201" name="InceptionV3/InceptionV3/Mixed_6b/Branch_2/Conv2d_0d_7x1/convolution" type="Convolution" version="opset1">
			<data auto_pad="same_upper" dilations="1,1" pads_begin="0,0" pads_end="0,0" strides="1,1"/>
			<input>
				<port id="0">
					<dim>1</dim>
					<dim>128</dim>
					<dim>17</dim>
					<dim>17</dim>
				</port>
				<port id="1">
					<dim>128</dim>
					<dim>128</dim>
					<dim>7</dim>
					<dim>1</dim>
				</port>
			</input>
			<output>
				<port id="2" names="InceptionV3/InceptionV3/Mixed_6b/Branch_2/Conv2d_0d_7x1/BatchNorm/batchnorm/mul:0" precision="FP32">
					<dim>1</dim>
					<dim>128</dim>
					<dim>17</dim>
					<dim>17</dim>
				</port>
			</output>
		</layer>
		<layer id="202" name="InceptionV3/InceptionV3/Mixed_6b/Branch_2/Conv2d_0d_7x1/BatchNorm/batchnorm/sub/EltwiseUnsqueeze11973_const" type="Const" version="opset1">
			<data element_type="f32" offset="12471440" shape="1,128,1,1" size="512"/>
			<output>
				<port id="0" names="InceptionV3/InceptionV3/Mixed_6b/Branch_2/Conv2d_0d_7x1/BatchNorm/batchnorm/sub:0" precision="FP32">
					<dim>1</dim>
					<dim>128</dim>
					<dim>1</dim>
					<dim>1</dim>
				</port>
			</output>
		</layer>
		<layer id="203" name="InceptionV3/InceptionV3/Mixed_6b/Branch_2/Conv2d_0d_7x1/BatchNorm/batchnorm/add_1" type="Add" version="opset1">
			<data auto_broadcast="numpy"/>
			<input>
				<port id="0">
					<dim>1</dim>
					<dim>128</dim>
					<dim>17</dim>
					<dim>17</dim>
				</port>
				<port id="1">
					<dim>1</dim>
					<dim>128</dim>
					<dim>1</dim>
					<dim>1</dim>
				</port>
			</input>
			<output>
				<port id="2" names="InceptionV3/InceptionV3/Mixed_6b/Branch_2/Conv2d_0d_7x1/BatchNorm/batchnorm/add_1:0" precision="FP32">
					<dim>1</dim>
					<dim>128</dim>
					<dim>17</dim>
					<dim>17</dim>
				</port>
			</output>
		</layer>
		<layer id="204" name="InceptionV3/InceptionV3/Mixed_6b/Branch_2/Conv2d_0d_7x1/Relu" type="ReLU" version="opset1">
			<input>
				<port id="0">
					<dim>1</dim>
					<dim>128</dim>
					<dim>17</dim>
					<dim>17</dim>
				</port>
			</input>
			<output>
				<port id="1" names="InceptionV3/InceptionV3/Mixed_6b/Branch_2/Conv2d_0d_7x1/Relu:0" precision="FP32">
					<dim>1</dim>
					<dim>128</dim>
					<dim>17</dim>
					<dim>17</dim>
				</port>
			</output>
		</layer>
		<layer id="205" name="InceptionV3/InceptionV3/Mixed_6b/Branch_2/Conv2d_0e_1x7/convolution/Transpose15579_const" type="Const" version="opset1">
			<data element_type="f32" offset="12471952" shape="192,128,1,7" size="688128"/>
			<output>
				<port id="0" names="InceptionV3/Mixed_6b/Branch_2/Conv2d_0e_1x7/weights/read:0" precision="FP32">
					<dim>192</dim>
					<dim>128</dim>
					<dim>1</dim>
					<dim>7</dim>
				</port>
			</output>
		</layer>
		<layer id="206" name="InceptionV3/InceptionV3/Mixed_6b/Branch_2/Conv2d_0e_1x7/convolution" type="Convolution" version="opset1">
			<data auto_pad="same_upper" dilations="1,1" pads_begin="0,0" pads_end="0,0" strides="1,1"/>
			<input>
				<port id="0">
					<dim>1</dim>
					<dim>128</dim>
					<dim>17</dim>
					<dim>17</dim>
				</port>
				<port id="1">
					<dim>192</dim>
					<dim>128</dim>
					<dim>1</dim>
					<dim>7</dim>
				</port>
			</input>
			<output>
				<port id="2" names="InceptionV3/InceptionV3/Mixed_6b/Branch_2/Conv2d_0e_1x7/BatchNorm/batchnorm/mul:0" precision="FP32">
					<dim>1</dim>
					<dim>192</dim>
					<dim>17</dim>
					<dim>17</dim>
				</port>
			</output>
		</layer>
		<layer id="207" name="InceptionV3/InceptionV3/Mixed_6b/Branch_2/Conv2d_0e_1x7/BatchNorm/batchnorm/sub/EltwiseUnsqueeze11981_const" type="Const" version="opset1">
			<data element_type="f32" offset="13160080" shape="1,192,1,1" size="768"/>
			<output>
				<port id="0" names="InceptionV3/InceptionV3/Mixed_6b/Branch_2/Conv2d_0e_1x7/BatchNorm/batchnorm/sub:0" precision="FP32">
					<dim>1</dim>
					<dim>192</dim>
					<dim>1</dim>
					<dim>1</dim>
				</port>
			</output>
		</layer>
		<layer id="208" name="InceptionV3/InceptionV3/Mixed_6b/Branch_2/Conv2d_0e_1x7/BatchNorm/batchnorm/add_1" type="Add" version="opset1">
			<data auto_broadcast="numpy"/>
			<input>
				<port id="0">
					<dim>1</dim>
					<dim>192</dim>
					<dim>17</dim>
					<dim>17</dim>
				</port>
				<port id="1">
					<dim>1</dim>
					<dim>192</dim>
					<dim>1</dim>
					<dim>1</dim>
				</port>
			</input>
			<output>
				<port id="2" names="InceptionV3/InceptionV3/Mixed_6b/Branch_2/Conv2d_0e_1x7/BatchNorm/batchnorm/add_1:0" precision="FP32">
					<dim>1</dim>
					<dim>192</dim>
					<dim>17</dim>
					<dim>17</dim>
				</port>
			</output>
		</layer>
		<layer id="209" name="InceptionV3/InceptionV3/Mixed_6b/Branch_2/Conv2d_0e_1x7/Relu" type="ReLU" version="opset1">
			<input>
				<port id="0">
					<dim>1</dim>
					<dim>192</dim>
					<dim>17</dim>
					<dim>17</dim>
				</port>
			</input>
			<output>
				<port id="1" names="InceptionV3/InceptionV3/Mixed_6b/Branch_2/Conv2d_0e_1x7/Relu:0" precision="FP32">
					<dim>1</dim>
					<dim>192</dim>
					<dim>17</dim>
					<dim>17</dim>
				</port>
			</output>
		</layer>
		<layer id="210" name="InceptionV3/InceptionV3/Mixed_6b/Branch_3/AvgPool_0a_3x3/AvgPool" type="AvgPool" version="opset1">
			<data auto_pad="same_upper" exclude-pad="true" kernel="3,3" pads_begin="1,1" pads_end="1,1" strides="1,1"/>
			<input>
				<port id="0">
					<dim>1</dim>
					<dim>768</dim>
					<dim>17</dim>
					<dim>17</dim>
				</port>
			</input>
			<output>
				<port id="1" names="InceptionV3/InceptionV3/Mixed_6b/Branch_3/AvgPool_0a_3x3/AvgPool:0" precision="FP32">
					<dim>1</dim>
					<dim>768</dim>
					<dim>17</dim>
					<dim>17</dim>
				</port>
			</output>
		</layer>
		<layer id="211" name="InceptionV3/InceptionV3/Mixed_6b/Branch_3/Conv2d_0b_1x1/convolution/Transpose15583_const" type="Const" version="opset1">
			<data element_type="f32" offset="13160848" shape="192,768,1,1" size="589824"/>
			<output>
				<port id="0" names="InceptionV3/Mixed_6b/Branch_3/Conv2d_0b_1x1/weights/read:0" precision="FP32">
					<dim>192</dim>
					<dim>768</dim>
					<dim>1</dim>
					<dim>1</dim>
				</port>
			</output>
		</layer>
		<layer id="212" name="InceptionV3/InceptionV3/Mixed_6b/Branch_3/Conv2d_0b_1x1/convolution" type="Convolution" version="opset1">
			<data auto_pad="same_upper" dilations="1,1" pads_begin="0,0" pads_end="0,0" strides="1,1"/>
			<input>
				<port id="0">
					<dim>1</dim>
					<dim>768</dim>
					<dim>17</dim>
					<dim>17</dim>
				</port>
				<port id="1">
					<dim>192</dim>
					<dim>768</dim>
					<dim>1</dim>
					<dim>1</dim>
				</port>
			</input>
			<output>
				<port id="2" names="InceptionV3/InceptionV3/Mixed_6b/Branch_3/Conv2d_0b_1x1/BatchNorm/batchnorm/mul:0" precision="FP32">
					<dim>1</dim>
					<dim>192</dim>
					<dim>17</dim>
					<dim>17</dim>
				</port>
			</output>
		</layer>
		<layer id="213" name="InceptionV3/InceptionV3/Mixed_6b/Branch_3/Conv2d_0b_1x1/BatchNorm/batchnorm/sub/EltwiseUnsqueeze11989_const" type="Const" version="opset1">
			<data element_type="f32" offset="13750672" shape="1,192,1,1" size="768"/>
			<output>
				<port id="0" names="InceptionV3/InceptionV3/Mixed_6b/Branch_3/Conv2d_0b_1x1/BatchNorm/batchnorm/sub:0" precision="FP32">
					<dim>1</dim>
					<dim>192</dim>
					<dim>1</dim>
					<dim>1</dim>
				</port>
			</output>
		</layer>
		<layer id="214" name="InceptionV3/InceptionV3/Mixed_6b/Branch_3/Conv2d_0b_1x1/BatchNorm/batchnorm/add_1" type="Add" version="opset1">
			<data auto_broadcast="numpy"/>
			<input>
				<port id="0">
					<dim>1</dim>
					<dim>192</dim>
					<dim>17</dim>
					<dim>17</dim>
				</port>
				<port id="1">
					<dim>1</dim>
					<dim>192</dim>
					<dim>1</dim>
					<dim>1</dim>
				</port>
			</input>
			<output>
				<port id="2" names="InceptionV3/InceptionV3/Mixed_6b/Branch_3/Conv2d_0b_1x1/BatchNorm/batchnorm/add_1:0" precision="FP32">
					<dim>1</dim>
					<dim>192</dim>
					<dim>17</dim>
					<dim>17</dim>
				</port>
			</output>
		</layer>
		<layer id="215" name="InceptionV3/InceptionV3/Mixed_6b/Branch_3/Conv2d_0b_1x1/Relu" type="ReLU" version="opset1">
			<input>
				<port id="0">
					<dim>1</dim>
					<dim>192</dim>
					<dim>17</dim>
					<dim>17</dim>
				</port>
			</input>
			<output>
				<port id="1" names="InceptionV3/InceptionV3/Mixed_6b/Branch_3/Conv2d_0b_1x1/Relu:0" precision="FP32">
					<dim>1</dim>
					<dim>192</dim>
					<dim>17</dim>
					<dim>17</dim>
				</port>
			</output>
		</layer>
		<layer id="216" name="InceptionV3/InceptionV3/Mixed_6b/concat_v2" type="Concat" version="opset1">
			<data axis="1"/>
			<input>
				<port id="0">
					<dim>1</dim>
					<dim>192</dim>
					<dim>17</dim>
					<dim>17</dim>
				</port>
				<port id="1">
					<dim>1</dim>
					<dim>192</dim>
					<dim>17</dim>
					<dim>17</dim>
				</port>
				<port id="2">
					<dim>1</dim>
					<dim>192</dim>
					<dim>17</dim>
					<dim>17</dim>
				</port>
				<port id="3">
					<dim>1</dim>
					<dim>192</dim>
					<dim>17</dim>
					<dim>17</dim>
				</port>
			</input>
			<output>
				<port id="4" names="InceptionV3/InceptionV3/Mixed_6b/concat_v2:0" precision="FP32">
					<dim>1</dim>
					<dim>768</dim>
					<dim>17</dim>
					<dim>17</dim>
				</port>
			</output>
		</layer>
		<layer id="217" name="InceptionV3/InceptionV3/Mixed_6c/Branch_0/Conv2d_0a_1x1/convolution/Transpose15587_const" type="Const" version="opset1">
			<data element_type="f32" offset="13751440" shape="192,768,1,1" size="589824"/>
			<output>
				<port id="0" names="InceptionV3/Mixed_6c/Branch_0/Conv2d_0a_1x1/weights/read:0" precision="FP32">
					<dim>192</dim>
					<dim>768</dim>
					<dim>1</dim>
					<dim>1</dim>
				</port>
			</output>
		</layer>
		<layer id="218" name="InceptionV3/InceptionV3/Mixed_6c/Branch_0/Conv2d_0a_1x1/convolution" type="Convolution" version="opset1">
			<data auto_pad="same_upper" dilations="1,1" pads_begin="0,0" pads_end="0,0" strides="1,1"/>
			<input>
				<port id="0">
					<dim>1</dim>
					<dim>768</dim>
					<dim>17</dim>
					<dim>17</dim>
				</port>
				<port id="1">
					<dim>192</dim>
					<dim>768</dim>
					<dim>1</dim>
					<dim>1</dim>
				</port>
			</input>
			<output>
				<port id="2" names="InceptionV3/InceptionV3/Mixed_6c/Branch_0/Conv2d_0a_1x1/BatchNorm/batchnorm/mul:0" precision="FP32">
					<dim>1</dim>
					<dim>192</dim>
					<dim>17</dim>
					<dim>17</dim>
				</port>
			</output>
		</layer>
		<layer id="219" name="InceptionV3/InceptionV3/Mixed_6c/Branch_0/Conv2d_0a_1x1/BatchNorm/batchnorm/sub/EltwiseUnsqueeze11997_const" type="Const" version="opset1">
			<data element_type="f32" offset="14341264" shape="1,192,1,1" size="768"/>
			<output>
				<port id="0" names="InceptionV3/InceptionV3/Mixed_6c/Branch_0/Conv2d_0a_1x1/BatchNorm/batchnorm/sub:0" precision="FP32">
					<dim>1</dim>
					<dim>192</dim>
					<dim>1</dim>
					<dim>1</dim>
				</port>
			</output>
		</layer>
		<layer id="220" name="InceptionV3/InceptionV3/Mixed_6c/Branch_0/Conv2d_0a_1x1/BatchNorm/batchnorm/add_1" type="Add" version="opset1">
			<data auto_broadcast="numpy"/>
			<input>
				<port id="0">
					<dim>1</dim>
					<dim>192</dim>
					<dim>17</dim>
					<dim>17</dim>
				</port>
				<port id="1">
					<dim>1</dim>
					<dim>192</dim>
					<dim>1</dim>
					<dim>1</dim>
				</port>
			</input>
			<output>
				<port id="2" names="InceptionV3/InceptionV3/Mixed_6c/Branch_0/Conv2d_0a_1x1/BatchNorm/batchnorm/add_1:0" precision="FP32">
					<dim>1</dim>
					<dim>192</dim>
					<dim>17</dim>
					<dim>17</dim>
				</port>
			</output>
		</layer>
		<layer id="221" name="InceptionV3/InceptionV3/Mixed_6c/Branch_0/Conv2d_0a_1x1/Relu" type="ReLU" version="opset1">
			<input>
				<port id="0">
					<dim>1</dim>
					<dim>192</dim>
					<dim>17</dim>
					<dim>17</dim>
				</port>
			</input>
			<output>
				<port id="1" names="InceptionV3/InceptionV3/Mixed_6c/Branch_0/Conv2d_0a_1x1/Relu:0" precision="FP32">
					<dim>1</dim>
					<dim>192</dim>
					<dim>17</dim>
					<dim>17</dim>
				</port>
			</output>
		</layer>
		<layer id="222" name="InceptionV3/InceptionV3/Mixed_6c/Branch_1/Conv2d_0a_1x1/convolution/Transpose15591_const" type="Const" version="opset1">
			<data element_type="f32" offset="14342032" shape="160,768,1,1" size="491520"/>
			<output>
				<port id="0" names="InceptionV3/Mixed_6c/Branch_1/Conv2d_0a_1x1/weights/read:0" precision="FP32">
					<dim>160</dim>
					<dim>768</dim>
					<dim>1</dim>
					<dim>1</dim>
				</port>
			</output>
		</layer>
		<layer id="223" name="InceptionV3/InceptionV3/Mixed_6c/Branch_1/Conv2d_0a_1x1/convolution" type="Convolution" version="opset1">
			<data auto_pad="same_upper" dilations="1,1" pads_begin="0,0" pads_end="0,0" strides="1,1"/>
			<input>
				<port id="0">
					<dim>1</dim>
					<dim>768</dim>
					<dim>17</dim>
					<dim>17</dim>
				</port>
				<port id="1">
					<dim>160</dim>
					<dim>768</dim>
					<dim>1</dim>
					<dim>1</dim>
				</port>
			</input>
			<output>
				<port id="2" names="InceptionV3/InceptionV3/Mixed_6c/Branch_1/Conv2d_0a_1x1/BatchNorm/batchnorm/mul:0" precision="FP32">
					<dim>1</dim>
					<dim>160</dim>
					<dim>17</dim>
					<dim>17</dim>
				</port>
			</output>
		</layer>
		<layer id="224" name="InceptionV3/InceptionV3/Mixed_6c/Branch_1/Conv2d_0a_1x1/BatchNorm/batchnorm/sub/EltwiseUnsqueeze12005_const" type="Const" version="opset1">
			<data element_type="f32" offset="14833552" shape="1,160,1,1" size="640"/>
			<output>
				<port id="0" names="InceptionV3/InceptionV3/Mixed_6c/Branch_1/Conv2d_0a_1x1/BatchNorm/batchnorm/sub:0" precision="FP32">
					<dim>1</dim>
					<dim>160</dim>
					<dim>1</dim>
					<dim>1</dim>
				</port>
			</output>
		</layer>
		<layer id="225" name="InceptionV3/InceptionV3/Mixed_6c/Branch_1/Conv2d_0a_1x1/BatchNorm/batchnorm/add_1" type="Add" version="opset1">
			<data auto_broadcast="numpy"/>
			<input>
				<port id="0">
					<dim>1</dim>
					<dim>160</dim>
					<dim>17</dim>
					<dim>17</dim>
				</port>
				<port id="1">
					<dim>1</dim>
					<dim>160</dim>
					<dim>1</dim>
					<dim>1</dim>
				</port>
			</input>
			<output>
				<port id="2" names="InceptionV3/InceptionV3/Mixed_6c/Branch_1/Conv2d_0a_1x1/BatchNorm/batchnorm/add_1:0" precision="FP32">
					<dim>1</dim>
					<dim>160</dim>
					<dim>17</dim>
					<dim>17</dim>
				</port>
			</output>
		</layer>
		<layer id="226" name="InceptionV3/InceptionV3/Mixed_6c/Branch_1/Conv2d_0a_1x1/Relu" type="ReLU" version="opset1">
			<input>
				<port id="0">
					<dim>1</dim>
					<dim>160</dim>
					<dim>17</dim>
					<dim>17</dim>
				</port>
			</input>
			<output>
				<port id="1" names="InceptionV3/InceptionV3/Mixed_6c/Branch_1/Conv2d_0a_1x1/Relu:0" precision="FP32">
					<dim>1</dim>
					<dim>160</dim>
					<dim>17</dim>
					<dim>17</dim>
				</port>
			</output>
		</layer>
		<layer id="227" name="InceptionV3/InceptionV3/Mixed_6c/Branch_1/Conv2d_0b_1x7/convolution/Transpose15595_const" type="Const" version="opset1">
			<data element_type="f32" offset="14834192" shape="160,160,1,7" size="716800"/>
			<output>
				<port id="0" names="InceptionV3/Mixed_6c/Branch_1/Conv2d_0b_1x7/weights/read:0" precision="FP32">
					<dim>160</dim>
					<dim>160</dim>
					<dim>1</dim>
					<dim>7</dim>
				</port>
			</output>
		</layer>
		<layer id="228" name="InceptionV3/InceptionV3/Mixed_6c/Branch_1/Conv2d_0b_1x7/convolution" type="Convolution" version="opset1">
			<data auto_pad="same_upper" dilations="1,1" pads_begin="0,0" pads_end="0,0" strides="1,1"/>
			<input>
				<port id="0">
					<dim>1</dim>
					<dim>160</dim>
					<dim>17</dim>
					<dim>17</dim>
				</port>
				<port id="1">
					<dim>160</dim>
					<dim>160</dim>
					<dim>1</dim>
					<dim>7</dim>
				</port>
			</input>
			<output>
				<port id="2" names="InceptionV3/InceptionV3/Mixed_6c/Branch_1/Conv2d_0b_1x7/BatchNorm/batchnorm/mul:0" precision="FP32">
					<dim>1</dim>
					<dim>160</dim>
					<dim>17</dim>
					<dim>17</dim>
				</port>
			</output>
		</layer>
		<layer id="229" name="InceptionV3/InceptionV3/Mixed_6c/Branch_1/Conv2d_0b_1x7/BatchNorm/batchnorm/sub/EltwiseUnsqueeze12013_const" type="Const" version="opset1">
			<data element_type="f32" offset="15550992" shape="1,160,1,1" size="640"/>
			<output>
				<port id="0" names="InceptionV3/InceptionV3/Mixed_6c/Branch_1/Conv2d_0b_1x7/BatchNorm/batchnorm/sub:0" precision="FP32">
					<dim>1</dim>
					<dim>160</dim>
					<dim>1</dim>
					<dim>1</dim>
				</port>
			</output>
		</layer>
		<layer id="230" name="InceptionV3/InceptionV3/Mixed_6c/Branch_1/Conv2d_0b_1x7/BatchNorm/batchnorm/add_1" type="Add" version="opset1">
			<data auto_broadcast="numpy"/>
			<input>
				<port id="0">
					<dim>1</dim>
					<dim>160</dim>
					<dim>17</dim>
					<dim>17</dim>
				</port>
				<port id="1">
					<dim>1</dim>
					<dim>160</dim>
					<dim>1</dim>
					<dim>1</dim>
				</port>
			</input>
			<output>
				<port id="2" names="InceptionV3/InceptionV3/Mixed_6c/Branch_1/Conv2d_0b_1x7/BatchNorm/batchnorm/add_1:0" precision="FP32">
					<dim>1</dim>
					<dim>160</dim>
					<dim>17</dim>
					<dim>17</dim>
				</port>
			</output>
		</layer>
		<layer id="231" name="InceptionV3/InceptionV3/Mixed_6c/Branch_1/Conv2d_0b_1x7/Relu" type="ReLU" version="opset1">
			<input>
				<port id="0">
					<dim>1</dim>
					<dim>160</dim>
					<dim>17</dim>
					<dim>17</dim>
				</port>
			</input>
			<output>
				<port id="1" names="InceptionV3/InceptionV3/Mixed_6c/Branch_1/Conv2d_0b_1x7/Relu:0" precision="FP32">
					<dim>1</dim>
					<dim>160</dim>
					<dim>17</dim>
					<dim>17</dim>
				</port>
			</output>
		</layer>
		<layer id="232" name="InceptionV3/InceptionV3/Mixed_6c/Branch_1/Conv2d_0c_7x1/convolution/Transpose15599_const" type="Const" version="opset1">
			<data element_type="f32" offset="15551632" shape="192,160,7,1" size="860160"/>
			<output>
				<port id="0" names="InceptionV3/Mixed_6c/Branch_1/Conv2d_0c_7x1/weights/read:0" precision="FP32">
					<dim>192</dim>
					<dim>160</dim>
					<dim>7</dim>
					<dim>1</dim>
				</port>
			</output>
		</layer>
		<layer id="233" name="InceptionV3/InceptionV3/Mixed_6c/Branch_1/Conv2d_0c_7x1/convolution" type="Convolution" version="opset1">
			<data auto_pad="same_upper" dilations="1,1" pads_begin="0,0" pads_end="0,0" strides="1,1"/>
			<input>
				<port id="0">
					<dim>1</dim>
					<dim>160</dim>
					<dim>17</dim>
					<dim>17</dim>
				</port>
				<port id="1">
					<dim>192</dim>
					<dim>160</dim>
					<dim>7</dim>
					<dim>1</dim>
				</port>
			</input>
			<output>
				<port id="2" names="InceptionV3/InceptionV3/Mixed_6c/Branch_1/Conv2d_0c_7x1/BatchNorm/batchnorm/mul:0" precision="FP32">
					<dim>1</dim>
					<dim>192</dim>
					<dim>17</dim>
					<dim>17</dim>
				</port>
			</output>
		</layer>
		<layer id="234" name="InceptionV3/InceptionV3/Mixed_6c/Branch_1/Conv2d_0c_7x1/BatchNorm/batchnorm/sub/EltwiseUnsqueeze12021_const" type="Const" version="opset1">
			<data element_type="f32" offset="16411792" shape="1,192,1,1" size="768"/>
			<output>
				<port id="0" names="InceptionV3/InceptionV3/Mixed_6c/Branch_1/Conv2d_0c_7x1/BatchNorm/batchnorm/sub:0" precision="FP32">
					<dim>1</dim>
					<dim>192</dim>
					<dim>1</dim>
					<dim>1</dim>
				</port>
			</output>
		</layer>
		<layer id="235" name="InceptionV3/InceptionV3/Mixed_6c/Branch_1/Conv2d_0c_7x1/BatchNorm/batchnorm/add_1" type="Add" version="opset1">
			<data auto_broadcast="numpy"/>
			<input>
				<port id="0">
					<dim>1</dim>
					<dim>192</dim>
					<dim>17</dim>
					<dim>17</dim>
				</port>
				<port id="1">
					<dim>1</dim>
					<dim>192</dim>
					<dim>1</dim>
					<dim>1</dim>
				</port>
			</input>
			<output>
				<port id="2" names="InceptionV3/InceptionV3/Mixed_6c/Branch_1/Conv2d_0c_7x1/BatchNorm/batchnorm/add_1:0" precision="FP32">
					<dim>1</dim>
					<dim>192</dim>
					<dim>17</dim>
					<dim>17</dim>
				</port>
			</output>
		</layer>
		<layer id="236" name="InceptionV3/InceptionV3/Mixed_6c/Branch_1/Conv2d_0c_7x1/Relu" type="ReLU" version="opset1">
			<input>
				<port id="0">
					<dim>1</dim>
					<dim>192</dim>
					<dim>17</dim>
					<dim>17</dim>
				</port>
			</input>
			<output>
				<port id="1" names="InceptionV3/InceptionV3/Mixed_6c/Branch_1/Conv2d_0c_7x1/Relu:0" precision="FP32">
					<dim>1</dim>
					<dim>192</dim>
					<dim>17</dim>
					<dim>17</dim>
				</port>
			</output>
		</layer>
		<layer id="237" name="InceptionV3/InceptionV3/Mixed_6c/Branch_2/Conv2d_0a_1x1/convolution/Transpose15603_const" type="Const" version="opset1">
			<data element_type="f32" offset="16412560" shape="160,768,1,1" size="491520"/>
			<output>
				<port id="0" names="InceptionV3/Mixed_6c/Branch_2/Conv2d_0a_1x1/weights/read:0" precision="FP32">
					<dim>160</dim>
					<dim>768</dim>
					<dim>1</dim>
					<dim>1</dim>
				</port>
			</output>
		</layer>
		<layer id="238" name="InceptionV3/InceptionV3/Mixed_6c/Branch_2/Conv2d_0a_1x1/convolution" type="Convolution" version="opset1">
			<data auto_pad="same_upper" dilations="1,1" pads_begin="0,0" pads_end="0,0" strides="1,1"/>
			<input>
				<port id="0">
					<dim>1</dim>
					<dim>768</dim>
					<dim>17</dim>
					<dim>17</dim>
				</port>
				<port id="1">
					<dim>160</dim>
					<dim>768</dim>
					<dim>1</dim>
					<dim>1</dim>
				</port>
			</input>
			<output>
				<port id="2" names="InceptionV3/InceptionV3/Mixed_6c/Branch_2/Conv2d_0a_1x1/BatchNorm/batchnorm/mul:0" precision="FP32">
					<dim>1</dim>
					<dim>160</dim>
					<dim>17</dim>
					<dim>17</dim>
				</port>
			</output>
		</layer>
		<layer id="239" name="InceptionV3/InceptionV3/Mixed_6c/Branch_2/Conv2d_0a_1x1/BatchNorm/batchnorm/sub/EltwiseUnsqueeze12029_const" type="Const" version="opset1">
			<data element_type="f32" offset="16904080" shape="1,160,1,1" size="640"/>
			<output>
				<port id="0" names="InceptionV3/InceptionV3/Mixed_6c/Branch_2/Conv2d_0a_1x1/BatchNorm/batchnorm/sub:0" precision="FP32">
					<dim>1</dim>
					<dim>160</dim>
					<dim>1</dim>
					<dim>1</dim>
				</port>
			</output>
		</layer>
		<layer id="240" name="InceptionV3/InceptionV3/Mixed_6c/Branch_2/Conv2d_0a_1x1/BatchNorm/batchnorm/add_1" type="Add" version="opset1">
			<data auto_broadcast="numpy"/>
			<input>
				<port id="0">
					<dim>1</dim>
					<dim>160</dim>
					<dim>17</dim>
					<dim>17</dim>
				</port>
				<port id="1">
					<dim>1</dim>
					<dim>160</dim>
					<dim>1</dim>
					<dim>1</dim>
				</port>
			</input>
			<output>
				<port id="2" names="InceptionV3/InceptionV3/Mixed_6c/Branch_2/Conv2d_0a_1x1/BatchNorm/batchnorm/add_1:0" precision="FP32">
					<dim>1</dim>
					<dim>160</dim>
					<dim>17</dim>
					<dim>17</dim>
				</port>
			</output>
		</layer>
		<layer id="241" name="InceptionV3/InceptionV3/Mixed_6c/Branch_2/Conv2d_0a_1x1/Relu" type="ReLU" version="opset1">
			<input>
				<port id="0">
					<dim>1</dim>
					<dim>160</dim>
					<dim>17</dim>
					<dim>17</dim>
				</port>
			</input>
			<output>
				<port id="1" names="InceptionV3/InceptionV3/Mixed_6c/Branch_2/Conv2d_0a_1x1/Relu:0" precision="FP32">
					<dim>1</dim>
					<dim>160</dim>
					<dim>17</dim>
					<dim>17</dim>
				</port>
			</output>
		</layer>
		<layer id="242" name="InceptionV3/InceptionV3/Mixed_6c/Branch_2/Conv2d_0b_7x1/convolution/Transpose15607_const" type="Const" version="opset1">
			<data element_type="f32" offset="16904720" shape="160,160,7,1" size="716800"/>
			<output>
				<port id="0" names="InceptionV3/Mixed_6c/Branch_2/Conv2d_0b_7x1/weights/read:0" precision="FP32">
					<dim>160</dim>
					<dim>160</dim>
					<dim>7</dim>
					<dim>1</dim>
				</port>
			</output>
		</layer>
		<layer id="243" name="InceptionV3/InceptionV3/Mixed_6c/Branch_2/Conv2d_0b_7x1/convolution" type="Convolution" version="opset1">
			<data auto_pad="same_upper" dilations="1,1" pads_begin="0,0" pads_end="0,0" strides="1,1"/>
			<input>
				<port id="0">
					<dim>1</dim>
					<dim>160</dim>
					<dim>17</dim>
					<dim>17</dim>
				</port>
				<port id="1">
					<dim>160</dim>
					<dim>160</dim>
					<dim>7</dim>
					<dim>1</dim>
				</port>
			</input>
			<output>
				<port id="2" names="InceptionV3/InceptionV3/Mixed_6c/Branch_2/Conv2d_0b_7x1/BatchNorm/batchnorm/mul:0" precision="FP32">
					<dim>1</dim>
					<dim>160</dim>
					<dim>17</dim>
					<dim>17</dim>
				</port>
			</output>
		</layer>
		<layer id="244" name="InceptionV3/InceptionV3/Mixed_6c/Branch_2/Conv2d_0b_7x1/BatchNorm/batchnorm/sub/EltwiseUnsqueeze12037_const" type="Const" version="opset1">
			<data element_type="f32" offset="17621520" shape="1,160,1,1" size="640"/>
			<output>
				<port id="0" names="InceptionV3/InceptionV3/Mixed_6c/Branch_2/Conv2d_0b_7x1/BatchNorm/batchnorm/sub:0" precision="FP32">
					<dim>1</dim>
					<dim>160</dim>
					<dim>1</dim>
					<dim>1</dim>
				</port>
			</output>
		</layer>
		<layer id="245" name="InceptionV3/InceptionV3/Mixed_6c/Branch_2/Conv2d_0b_7x1/BatchNorm/batchnorm/add_1" type="Add" version="opset1">
			<data auto_broadcast="numpy"/>
			<input>
				<port id="0">
					<dim>1</dim>
					<dim>160</dim>
					<dim>17</dim>
					<dim>17</dim>
				</port>
				<port id="1">
					<dim>1</dim>
					<dim>160</dim>
					<dim>1</dim>
					<dim>1</dim>
				</port>
			</input>
			<output>
				<port id="2" names="InceptionV3/InceptionV3/Mixed_6c/Branch_2/Conv2d_0b_7x1/BatchNorm/batchnorm/add_1:0" precision="FP32">
					<dim>1</dim>
					<dim>160</dim>
					<dim>17</dim>
					<dim>17</dim>
				</port>
			</output>
		</layer>
		<layer id="246" name="InceptionV3/InceptionV3/Mixed_6c/Branch_2/Conv2d_0b_7x1/Relu" type="ReLU" version="opset1">
			<input>
				<port id="0">
					<dim>1</dim>
					<dim>160</dim>
					<dim>17</dim>
					<dim>17</dim>
				</port>
			</input>
			<output>
				<port id="1" names="InceptionV3/InceptionV3/Mixed_6c/Branch_2/Conv2d_0b_7x1/Relu:0" precision="FP32">
					<dim>1</dim>
					<dim>160</dim>
					<dim>17</dim>
					<dim>17</dim>
				</port>
			</output>
		</layer>
		<layer id="247" name="InceptionV3/InceptionV3/Mixed_6c/Branch_2/Conv2d_0c_1x7/convolution/Transpose15611_const" type="Const" version="opset1">
			<data element_type="f32" offset="17622160" shape="160,160,1,7" size="716800"/>
			<output>
				<port id="0" names="InceptionV3/Mixed_6c/Branch_2/Conv2d_0c_1x7/weights/read:0" precision="FP32">
					<dim>160</dim>
					<dim>160</dim>
					<dim>1</dim>
					<dim>7</dim>
				</port>
			</output>
		</layer>
		<layer id="248" name="InceptionV3/InceptionV3/Mixed_6c/Branch_2/Conv2d_0c_1x7/convolution" type="Convolution" version="opset1">
			<data auto_pad="same_upper" dilations="1,1" pads_begin="0,0" pads_end="0,0" strides="1,1"/>
			<input>
				<port id="0">
					<dim>1</dim>
					<dim>160</dim>
					<dim>17</dim>
					<dim>17</dim>
				</port>
				<port id="1">
					<dim>160</dim>
					<dim>160</dim>
					<dim>1</dim>
					<dim>7</dim>
				</port>
			</input>
			<output>
				<port id="2" names="InceptionV3/InceptionV3/Mixed_6c/Branch_2/Conv2d_0c_1x7/BatchNorm/batchnorm/mul:0" precision="FP32">
					<dim>1</dim>
					<dim>160</dim>
					<dim>17</dim>
					<dim>17</dim>
				</port>
			</output>
		</layer>
		<layer id="249" name="InceptionV3/InceptionV3/Mixed_6c/Branch_2/Conv2d_0c_1x7/BatchNorm/batchnorm/sub/EltwiseUnsqueeze12045_const" type="Const" version="opset1">
			<data element_type="f32" offset="18338960" shape="1,160,1,1" size="640"/>
			<output>
				<port id="0" names="InceptionV3/InceptionV3/Mixed_6c/Branch_2/Conv2d_0c_1x7/BatchNorm/batchnorm/sub:0" precision="FP32">
					<dim>1</dim>
					<dim>160</dim>
					<dim>1</dim>
					<dim>1</dim>
				</port>
			</output>
		</layer>
		<layer id="250" name="InceptionV3/InceptionV3/Mixed_6c/Branch_2/Conv2d_0c_1x7/BatchNorm/batchnorm/add_1" type="Add" version="opset1">
			<data auto_broadcast="numpy"/>
			<input>
				<port id="0">
					<dim>1</dim>
					<dim>160</dim>
					<dim>17</dim>
					<dim>17</dim>
				</port>
				<port id="1">
					<dim>1</dim>
					<dim>160</dim>
					<dim>1</dim>
					<dim>1</dim>
				</port>
			</input>
			<output>
				<port id="2" names="InceptionV3/InceptionV3/Mixed_6c/Branch_2/Conv2d_0c_1x7/BatchNorm/batchnorm/add_1:0" precision="FP32">
					<dim>1</dim>
					<dim>160</dim>
					<dim>17</dim>
					<dim>17</dim>
				</port>
			</output>
		</layer>
		<layer id="251" name="InceptionV3/InceptionV3/Mixed_6c/Branch_2/Conv2d_0c_1x7/Relu" type="ReLU" version="opset1">
			<input>
				<port id="0">
					<dim>1</dim>
					<dim>160</dim>
					<dim>17</dim>
					<dim>17</dim>
				</port>
			</input>
			<output>
				<port id="1" names="InceptionV3/InceptionV3/Mixed_6c/Branch_2/Conv2d_0c_1x7/Relu:0" precision="FP32">
					<dim>1</dim>
					<dim>160</dim>
					<dim>17</dim>
					<dim>17</dim>
				</port>
			</output>
		</layer>
		<layer id="252" name="InceptionV3/InceptionV3/Mixed_6c/Branch_2/Conv2d_0d_7x1/convolution/Transpose15615_const" type="Const" version="opset1">
			<data element_type="f32" offset="18339600" shape="160,160,7,1" size="716800"/>
			<output>
				<port id="0" names="InceptionV3/Mixed_6c/Branch_2/Conv2d_0d_7x1/weights/read:0" precision="FP32">
					<dim>160</dim>
					<dim>160</dim>
					<dim>7</dim>
					<dim>1</dim>
				</port>
			</output>
		</layer>
		<layer id="253" name="InceptionV3/InceptionV3/Mixed_6c/Branch_2/Conv2d_0d_7x1/convolution" type="Convolution" version="opset1">
			<data auto_pad="same_upper" dilations="1,1" pads_begin="0,0" pads_end="0,0" strides="1,1"/>
			<input>
				<port id="0">
					<dim>1</dim>
					<dim>160</dim>
					<dim>17</dim>
					<dim>17</dim>
				</port>
				<port id="1">
					<dim>160</dim>
					<dim>160</dim>
					<dim>7</dim>
					<dim>1</dim>
				</port>
			</input>
			<output>
				<port id="2" names="InceptionV3/InceptionV3/Mixed_6c/Branch_2/Conv2d_0d_7x1/BatchNorm/batchnorm/mul:0" precision="FP32">
					<dim>1</dim>
					<dim>160</dim>
					<dim>17</dim>
					<dim>17</dim>
				</port>
			</output>
		</layer>
		<layer id="254" name="InceptionV3/InceptionV3/Mixed_6c/Branch_2/Conv2d_0d_7x1/BatchNorm/batchnorm/sub/EltwiseUnsqueeze12053_const" type="Const" version="opset1">
			<data element_type="f32" offset="19056400" shape="1,160,1,1" size="640"/>
			<output>
				<port id="0" names="InceptionV3/InceptionV3/Mixed_6c/Branch_2/Conv2d_0d_7x1/BatchNorm/batchnorm/sub:0" precision="FP32">
					<dim>1</dim>
					<dim>160</dim>
					<dim>1</dim>
					<dim>1</dim>
				</port>
			</output>
		</layer>
		<layer id="255" name="InceptionV3/InceptionV3/Mixed_6c/Branch_2/Conv2d_0d_7x1/BatchNorm/batchnorm/add_1" type="Add" version="opset1">
			<data auto_broadcast="numpy"/>
			<input>
				<port id="0">
					<dim>1</dim>
					<dim>160</dim>
					<dim>17</dim>
					<dim>17</dim>
				</port>
				<port id="1">
					<dim>1</dim>
					<dim>160</dim>
					<dim>1</dim>
					<dim>1</dim>
				</port>
			</input>
			<output>
				<port id="2" names="InceptionV3/InceptionV3/Mixed_6c/Branch_2/Conv2d_0d_7x1/BatchNorm/batchnorm/add_1:0" precision="FP32">
					<dim>1</dim>
					<dim>160</dim>
					<dim>17</dim>
					<dim>17</dim>
				</port>
			</output>
		</layer>
		<layer id="256" name="InceptionV3/InceptionV3/Mixed_6c/Branch_2/Conv2d_0d_7x1/Relu" type="ReLU" version="opset1">
			<input>
				<port id="0">
					<dim>1</dim>
					<dim>160</dim>
					<dim>17</dim>
					<dim>17</dim>
				</port>
			</input>
			<output>
				<port id="1" names="InceptionV3/InceptionV3/Mixed_6c/Branch_2/Conv2d_0d_7x1/Relu:0" precision="FP32">
					<dim>1</dim>
					<dim>160</dim>
					<dim>17</dim>
					<dim>17</dim>
				</port>
			</output>
		</layer>
		<layer id="257" name="InceptionV3/InceptionV3/Mixed_6c/Branch_2/Conv2d_0e_1x7/convolution/Transpose15619_const" type="Const" version="opset1">
			<data element_type="f32" offset="19057040" shape="192,160,1,7" size="860160"/>
			<output>
				<port id="0" names="InceptionV3/Mixed_6c/Branch_2/Conv2d_0e_1x7/weights/read:0" precision="FP32">
					<dim>192</dim>
					<dim>160</dim>
					<dim>1</dim>
					<dim>7</dim>
				</port>
			</output>
		</layer>
		<layer id="258" name="InceptionV3/InceptionV3/Mixed_6c/Branch_2/Conv2d_0e_1x7/convolution" type="Convolution" version="opset1">
			<data auto_pad="same_upper" dilations="1,1" pads_begin="0,0" pads_end="0,0" strides="1,1"/>
			<input>
				<port id="0">
					<dim>1</dim>
					<dim>160</dim>
					<dim>17</dim>
					<dim>17</dim>
				</port>
				<port id="1">
					<dim>192</dim>
					<dim>160</dim>
					<dim>1</dim>
					<dim>7</dim>
				</port>
			</input>
			<output>
				<port id="2" names="InceptionV3/InceptionV3/Mixed_6c/Branch_2/Conv2d_0e_1x7/BatchNorm/batchnorm/mul:0" precision="FP32">
					<dim>1</dim>
					<dim>192</dim>
					<dim>17</dim>
					<dim>17</dim>
				</port>
			</output>
		</layer>
		<layer id="259" name="InceptionV3/InceptionV3/Mixed_6c/Branch_2/Conv2d_0e_1x7/BatchNorm/batchnorm/sub/EltwiseUnsqueeze12061_const" type="Const" version="opset1">
			<data element_type="f32" offset="19917200" shape="1,192,1,1" size="768"/>
			<output>
				<port id="0" names="InceptionV3/InceptionV3/Mixed_6c/Branch_2/Conv2d_0e_1x7/BatchNorm/batchnorm/sub:0" precision="FP32">
					<dim>1</dim>
					<dim>192</dim>
					<dim>1</dim>
					<dim>1</dim>
				</port>
			</output>
		</layer>
		<layer id="260" name="InceptionV3/InceptionV3/Mixed_6c/Branch_2/Conv2d_0e_1x7/BatchNorm/batchnorm/add_1" type="Add" version="opset1">
			<data auto_broadcast="numpy"/>
			<input>
				<port id="0">
					<dim>1</dim>
					<dim>192</dim>
					<dim>17</dim>
					<dim>17</dim>
				</port>
				<port id="1">
					<dim>1</dim>
					<dim>192</dim>
					<dim>1</dim>
					<dim>1</dim>
				</port>
			</input>
			<output>
				<port id="2" names="InceptionV3/InceptionV3/Mixed_6c/Branch_2/Conv2d_0e_1x7/BatchNorm/batchnorm/add_1:0" precision="FP32">
					<dim>1</dim>
					<dim>192</dim>
					<dim>17</dim>
					<dim>17</dim>
				</port>
			</output>
		</layer>
		<layer id="261" name="InceptionV3/InceptionV3/Mixed_6c/Branch_2/Conv2d_0e_1x7/Relu" type="ReLU" version="opset1">
			<input>
				<port id="0">
					<dim>1</dim>
					<dim>192</dim>
					<dim>17</dim>
					<dim>17</dim>
				</port>
			</input>
			<output>
				<port id="1" names="InceptionV3/InceptionV3/Mixed_6c/Branch_2/Conv2d_0e_1x7/Relu:0" precision="FP32">
					<dim>1</dim>
					<dim>192</dim>
					<dim>17</dim>
					<dim>17</dim>
				</port>
			</output>
		</layer>
		<layer id="262" name="InceptionV3/InceptionV3/Mixed_6c/Branch_3/AvgPool_0a_3x3/AvgPool" type="AvgPool" version="opset1">
			<data auto_pad="same_upper" exclude-pad="true" kernel="3,3" pads_begin="1,1" pads_end="1,1" strides="1,1"/>
			<input>
				<port id="0">
					<dim>1</dim>
					<dim>768</dim>
					<dim>17</dim>
					<dim>17</dim>
				</port>
			</input>
			<output>
				<port id="1" names="InceptionV3/InceptionV3/Mixed_6c/Branch_3/AvgPool_0a_3x3/AvgPool:0" precision="FP32">
					<dim>1</dim>
					<dim>768</dim>
					<dim>17</dim>
					<dim>17</dim>
				</port>
			</output>
		</layer>
		<layer id="263" name="InceptionV3/InceptionV3/Mixed_6c/Branch_3/Conv2d_0b_1x1/convolution/Transpose15623_const" type="Const" version="opset1">
			<data element_type="f32" offset="19917968" shape="192,768,1,1" size="589824"/>
			<output>
				<port id="0" names="InceptionV3/Mixed_6c/Branch_3/Conv2d_0b_1x1/weights/read:0" precision="FP32">
					<dim>192</dim>
					<dim>768</dim>
					<dim>1</dim>
					<dim>1</dim>
				</port>
			</output>
		</layer>
		<layer id="264" name="InceptionV3/InceptionV3/Mixed_6c/Branch_3/Conv2d_0b_1x1/convolution" type="Convolution" version="opset1">
			<data auto_pad="same_upper" dilations="1,1" pads_begin="0,0" pads_end="0,0" strides="1,1"/>
			<input>
				<port id="0">
					<dim>1</dim>
					<dim>768</dim>
					<dim>17</dim>
					<dim>17</dim>
				</port>
				<port id="1">
					<dim>192</dim>
					<dim>768</dim>
					<dim>1</dim>
					<dim>1</dim>
				</port>
			</input>
			<output>
				<port id="2" names="InceptionV3/InceptionV3/Mixed_6c/Branch_3/Conv2d_0b_1x1/BatchNorm/batchnorm/mul:0" precision="FP32">
					<dim>1</dim>
					<dim>192</dim>
					<dim>17</dim>
					<dim>17</dim>
				</port>
			</output>
		</layer>
		<layer id="265" name="InceptionV3/InceptionV3/Mixed_6c/Branch_3/Conv2d_0b_1x1/BatchNorm/batchnorm/sub/EltwiseUnsqueeze12069_const" type="Const" version="opset1">
			<data element_type="f32" offset="20507792" shape="1,192,1,1" size="768"/>
			<output>
				<port id="0" names="InceptionV3/InceptionV3/Mixed_6c/Branch_3/Conv2d_0b_1x1/BatchNorm/batchnorm/sub:0" precision="FP32">
					<dim>1</dim>
					<dim>192</dim>
					<dim>1</dim>
					<dim>1</dim>
				</port>
			</output>
		</layer>
		<layer id="266" name="InceptionV3/InceptionV3/Mixed_6c/Branch_3/Conv2d_0b_1x1/BatchNorm/batchnorm/add_1" type="Add" version="opset1">
			<data auto_broadcast="numpy"/>
			<input>
				<port id="0">
					<dim>1</dim>
					<dim>192</dim>
					<dim>17</dim>
					<dim>17</dim>
				</port>
				<port id="1">
					<dim>1</dim>
					<dim>192</dim>
					<dim>1</dim>
					<dim>1</dim>
				</port>
			</input>
			<output>
				<port id="2" names="InceptionV3/InceptionV3/Mixed_6c/Branch_3/Conv2d_0b_1x1/BatchNorm/batchnorm/add_1:0" precision="FP32">
					<dim>1</dim>
					<dim>192</dim>
					<dim>17</dim>
					<dim>17</dim>
				</port>
			</output>
		</layer>
		<layer id="267" name="InceptionV3/InceptionV3/Mixed_6c/Branch_3/Conv2d_0b_1x1/Relu" type="ReLU" version="opset1">
			<input>
				<port id="0">
					<dim>1</dim>
					<dim>192</dim>
					<dim>17</dim>
					<dim>17</dim>
				</port>
			</input>
			<output>
				<port id="1" names="InceptionV3/InceptionV3/Mixed_6c/Branch_3/Conv2d_0b_1x1/Relu:0" precision="FP32">
					<dim>1</dim>
					<dim>192</dim>
					<dim>17</dim>
					<dim>17</dim>
				</port>
			</output>
		</layer>
		<layer id="268" name="InceptionV3/InceptionV3/Mixed_6c/concat_v2" type="Concat" version="opset1">
			<data axis="1"/>
			<input>
				<port id="0">
					<dim>1</dim>
					<dim>192</dim>
					<dim>17</dim>
					<dim>17</dim>
				</port>
				<port id="1">
					<dim>1</dim>
					<dim>192</dim>
					<dim>17</dim>
					<dim>17</dim>
				</port>
				<port id="2">
					<dim>1</dim>
					<dim>192</dim>
					<dim>17</dim>
					<dim>17</dim>
				</port>
				<port id="3">
					<dim>1</dim>
					<dim>192</dim>
					<dim>17</dim>
					<dim>17</dim>
				</port>
			</input>
			<output>
				<port id="4" names="InceptionV3/InceptionV3/Mixed_6c/concat_v2:0" precision="FP32">
					<dim>1</dim>
					<dim>768</dim>
					<dim>17</dim>
					<dim>17</dim>
				</port>
			</output>
		</layer>
		<layer id="269" name="InceptionV3/InceptionV3/Mixed_6d/Branch_0/Conv2d_0a_1x1/convolution/Transpose15627_const" type="Const" version="opset1">
			<data element_type="f32" offset="20508560" shape="192,768,1,1" size="589824"/>
			<output>
				<port id="0" names="InceptionV3/Mixed_6d/Branch_0/Conv2d_0a_1x1/weights/read:0" precision="FP32">
					<dim>192</dim>
					<dim>768</dim>
					<dim>1</dim>
					<dim>1</dim>
				</port>
			</output>
		</layer>
		<layer id="270" name="InceptionV3/InceptionV3/Mixed_6d/Branch_0/Conv2d_0a_1x1/convolution" type="Convolution" version="opset1">
			<data auto_pad="same_upper" dilations="1,1" pads_begin="0,0" pads_end="0,0" strides="1,1"/>
			<input>
				<port id="0">
					<dim>1</dim>
					<dim>768</dim>
					<dim>17</dim>
					<dim>17</dim>
				</port>
				<port id="1">
					<dim>192</dim>
					<dim>768</dim>
					<dim>1</dim>
					<dim>1</dim>
				</port>
			</input>
			<output>
				<port id="2" names="InceptionV3/InceptionV3/Mixed_6d/Branch_0/Conv2d_0a_1x1/BatchNorm/batchnorm/mul:0" precision="FP32">
					<dim>1</dim>
					<dim>192</dim>
					<dim>17</dim>
					<dim>17</dim>
				</port>
			</output>
		</layer>
		<layer id="271" name="InceptionV3/InceptionV3/Mixed_6d/Branch_0/Conv2d_0a_1x1/BatchNorm/batchnorm/sub/EltwiseUnsqueeze12077_const" type="Const" version="opset1">
…
					<dim>8</dim>
					<dim>8</dim>
				</port>
				<port id="1">
					<dim>1</dim>
					<dim>384</dim>
					<dim>1</dim>
					<dim>1</dim>
				</port>
			</input>
			<output>
				<port id="2" names="InceptionV3/InceptionV3/Mixed_7c/Branch_2/Conv2d_0d_3x1/BatchNorm/batchnorm/add_1:0" precision="FP32">
					<dim>1</dim>
					<dim>384</dim>
					<dim>8</dim>
					<dim>8</dim>
				</port>
			</output>
		</layer>
		<layer id="494" name="InceptionV3/InceptionV3/Mixed_7c/Branch_2/Conv2d_0d_3x1/Relu" type="ReLU" version="opset1">
			<input>
				<port id="0">
					<dim>1</dim>
					<dim>384</dim>
					<dim>8</dim>
					<dim>8</dim>
				</port>
			</input>
			<output>
				<port id="1" names="InceptionV3/InceptionV3/Mixed_7c/Branch_2/Conv2d_0d_3x1/Relu:0" precision="FP32">
					<dim>1</dim>
					<dim>384</dim>
					<dim>8</dim>
					<dim>8</dim>
				</port>
			</output>
		</layer>
		<layer id="495" name="InceptionV3/InceptionV3/Mixed_7c/Branch_2/concat_v2" type="Concat" version="opset1">
			<data axis="1"/>
			<input>
				<port id="0">
					<dim>1</dim>
					<dim>384</dim>
					<dim>8</dim>
					<dim>8</dim>
				</port>
				<port id="1">
					<dim>1</dim>
					<dim>384</dim>
					<dim>8</dim>
					<dim>8</dim>
				</port>
			</input>
			<output>
				<port id="2" names="InceptionV3/InceptionV3/Mixed_7c/Branch_2/concat_v2:0" precision="FP32">
					<dim>1</dim>
					<dim>768</dim>
					<dim>8</dim>
					<dim>8</dim>
				</port>
			</output>
		</layer>
		<layer id="496" name="InceptionV3/InceptionV3/Mixed_7c/Branch_3/AvgPool_0a_3x3/AvgPool" type="AvgPool" version="opset1">
			<data auto_pad="same_upper" exclude-pad="true" kernel="3,3" pads_begin="1,1" pads_end="1,1" strides="1,1"/>
			<input>
				<port id="0">
					<dim>1</dim>
					<dim>2048</dim>
					<dim>8</dim>
					<dim>8</dim>
				</port>
			</input>
			<output>
				<port id="1" names="InceptionV3/InceptionV3/Mixed_7c/Branch_3/AvgPool_0a_3x3/AvgPool:0" precision="FP32">
					<dim>1</dim>
					<dim>2048</dim>
					<dim>8</dim>
					<dim>8</dim>
				</port>
			</output>
		</layer>
		<layer id="497" name="InceptionV3/InceptionV3/Mixed_7c/Branch_3/Conv2d_0b_1x1/convolution/Transpose15799_const" type="Const" version="opset1">
			<data element_type="f32" offset="85499792" shape="192,2048,1,1" size="1572864"/>
			<output>
				<port id="0" names="InceptionV3/Mixed_7c/Branch_3/Conv2d_0b_1x1/weights/read:0" precision="FP32">
					<dim>192</dim>
					<dim>2048</dim>
					<dim>1</dim>
					<dim>1</dim>
				</port>
			</output>
		</layer>
		<layer id="498" name="InceptionV3/InceptionV3/Mixed_7c/Branch_3/Conv2d_0b_1x1/convolution" type="Convolution" version="opset1">
			<data auto_pad="same_upper" dilations="1,1" pads_begin="0,0" pads_end="0,0" strides="1,1"/>
			<input>
				<port id="0">
					<dim>1</dim>
					<dim>2048</dim>
					<dim>8</dim>
					<dim>8</dim>
				</port>
				<port id="1">
					<dim>192</dim>
					<dim>2048</dim>
					<dim>1</dim>
					<dim>1</dim>
				</port>
			</input>
			<output>
				<port id="2" names="InceptionV3/InceptionV3/Mixed_7c/Branch_3/Conv2d_0b_1x1/BatchNorm/batchnorm/mul:0" precision="FP32">
					<dim>1</dim>
					<dim>192</dim>
					<dim>8</dim>
					<dim>8</dim>
				</port>
			</output>
		</layer>
		<layer id="499" name="InceptionV3/InceptionV3/Mixed_7c/Branch_3/Conv2d_0b_1x1/BatchNorm/batchnorm/sub/EltwiseUnsqueeze12421_const" type="Const" version="opset1">
			<data element_type="f32" offset="87072656" shape="1,192,1,1" size="768"/>
			<output>
				<port id="0" names="InceptionV3/InceptionV3/Mixed_7c/Branch_3/Conv2d_0b_1x1/BatchNorm/batchnorm/sub:0" precision="FP32">
					<dim>1</dim>
					<dim>192</dim>
					<dim>1</dim>
					<dim>1</dim>
				</port>
			</output>
		</layer>
		<layer id="500" name="InceptionV3/InceptionV3/Mixed_7c/Branch_3/Conv2d_0b_1x1/BatchNorm/batchnorm/add_1" type="Add" version="opset1">
			<data auto_broadcast="numpy"/>
			<input>
				<port id="0">
					<dim>1</dim>
					<dim>192</dim>
					<dim>8</dim>
					<dim>8</dim>
				</port>
				<port id="1">
					<dim>1</dim>
					<dim>192</dim>
					<dim>1</dim>
					<dim>1</dim>
				</port>
			</input>
			<output>
				<port id="2" names="InceptionV3/InceptionV3/Mixed_7c/Branch_3/Conv2d_0b_1x1/BatchNorm/batchnorm/add_1:0" precision="FP32">
					<dim>1</dim>
					<dim>192</dim>
					<dim>8</dim>
					<dim>8</dim>
				</port>
			</output>
		</layer>
		<layer id="501" name="InceptionV3/InceptionV3/Mixed_7c/Branch_3/Conv2d_0b_1x1/Relu" type="ReLU" version="opset1">
			<input>
				<port id="0">
					<dim>1</dim>
					<dim>192</dim>
					<dim>8</dim>
					<dim>8</dim>
				</port>
			</input>
			<output>
				<port id="1" names="InceptionV3/InceptionV3/Mixed_7c/Branch_3/Conv2d_0b_1x1/Relu:0" precision="FP32">
					<dim>1</dim>
					<dim>192</dim>
					<dim>8</dim>
					<dim>8</dim>
				</port>
			</output>
		</layer>
		<layer id="502" name="InceptionV3/InceptionV3/Mixed_7c/concat_v2" type="Concat" version="opset1">
			<data axis="1"/>
			<input>
				<port id="0">
					<dim>1</dim>
					<dim>320</dim>
					<dim>8</dim>
					<dim>8</dim>
				</port>
				<port id="1">
					<dim>1</dim>
					<dim>768</dim>
					<dim>8</dim>
					<dim>8</dim>
				</port>
				<port id="2">
					<dim>1</dim>
					<dim>768</dim>
					<dim>8</dim>
					<dim>8</dim>
				</port>
				<port id="3">
					<dim>1</dim>
					<dim>192</dim>
					<dim>8</dim>
					<dim>8</dim>
				</port>
			</input>
			<output>
				<port id="4" names="InceptionV3/InceptionV3/Mixed_7c/concat_v2:0" precision="FP32">
					<dim>1</dim>
					<dim>2048</dim>
					<dim>8</dim>
					<dim>8</dim>
				</port>
			</output>
		</layer>
		<layer id="503" name="InceptionV3/Logits/AvgPool_1a_8x8/AvgPool" type="AvgPool" version="opset1">
			<data auto_pad="valid" exclude-pad="true" kernel="8,8" pads_begin="0,0" pads_end="0,0" strides="2,2"/>
			<input>
				<port id="0">
					<dim>1</dim>
					<dim>2048</dim>
					<dim>8</dim>
					<dim>8</dim>
				</port>
			</input>
			<output>
				<port id="1" names="InceptionV3/Logits/Dropout_1b/Identity:0,InceptionV3/Logits/AvgPool_1a_8x8/AvgPool:0" precision="FP32">
					<dim>1</dim>
					<dim>2048</dim>
					<dim>1</dim>
					<dim>1</dim>
				</port>
			</output>
		</layer>
		<layer id="504" name="InceptionV3/Logits/Conv2d_1c_1x1/convolution/Transpose15803_const" type="Const" version="opset1">
			<data element_type="f32" offset="87073424" shape="1001,2048,1,1" size="8200192"/>
			<output>
				<port id="0" names="InceptionV3/Logits/Conv2d_1c_1x1/weights/read:0" precision="FP32">
					<dim>1001</dim>
					<dim>2048</dim>
					<dim>1</dim>
					<dim>1</dim>
				</port>
			</output>
		</layer>
		<layer id="505" name="InceptionV3/Logits/Conv2d_1c_1x1/convolution" type="Convolution" version="opset1">
			<data auto_pad="same_upper" dilations="1,1" pads_begin="0,0" pads_end="0,0" strides="1,1"/>
			<input>
				<port id="0">
					<dim>1</dim>
					<dim>2048</dim>
					<dim>1</dim>
					<dim>1</dim>
				</port>
				<port id="1">
					<dim>1001</dim>
					<dim>2048</dim>
					<dim>1</dim>
					<dim>1</dim>
				</port>
			</input>
			<output>
				<port id="2" names="InceptionV3/Logits/Conv2d_1c_1x1/convolution:0" precision="FP32">
					<dim>1</dim>
					<dim>1001</dim>
					<dim>1</dim>
					<dim>1</dim>
				</port>
			</output>
		</layer>
		<layer id="506" name="InceptionV3/Logits/Conv2d_1c_1x1/biases/read/EltwiseUnsqueeze12425_const" type="Const" version="opset1">
			<data element_type="f32" offset="95273616" shape="1,1001,1,1" size="4004"/>
			<output>
				<port id="0" names="InceptionV3/Logits/Conv2d_1c_1x1/biases/read:0" precision="FP32">
					<dim>1</dim>
					<dim>1001</dim>
					<dim>1</dim>
					<dim>1</dim>
				</port>
			</output>
		</layer>
		<layer id="507" name="InceptionV3/Logits/Conv2d_1c_1x1/BiasAdd/Add" type="Add" version="opset1">
			<data auto_broadcast="numpy"/>
			<input>
				<port id="0">
					<dim>1</dim>
					<dim>1001</dim>
					<dim>1</dim>
					<dim>1</dim>
				</port>
				<port id="1">
					<dim>1</dim>
					<dim>1001</dim>
					<dim>1</dim>
					<dim>1</dim>
				</port>
			</input>
			<output>
				<port id="2" precision="FP32">
					<dim>1</dim>
					<dim>1001</dim>
					<dim>1</dim>
					<dim>1</dim>
				</port>
			</output>
		</layer>
		<layer id="508" name="InceptionV3/Logits/Conv2d_1c_1x1/BiasAdd/Add/Transpose/Cast_121480_const" type="Const" version="opset1">
			<data element_type="i64" offset="95277620" shape="4" size="32"/>
			<output>
				<port id="0" precision="I64">
					<dim>4</dim>
				</port>
			</output>
		</layer>
		<layer id="509" name="InceptionV3/Logits/Conv2d_1c_1x1/BiasAdd/Add/Transpose" type="Transpose" version="opset1">
			<input>
				<port id="0">
					<dim>1</dim>
					<dim>1001</dim>
					<dim>1</dim>
					<dim>1</dim>
				</port>
				<port id="1">
					<dim>4</dim>
				</port>
			</input>
			<output>
				<port id="2" names="InceptionV3/Logits/Conv2d_1c_1x1/BiasAdd:0" precision="FP32">
					<dim>1</dim>
					<dim>1</dim>
					<dim>1</dim>
					<dim>1001</dim>
				</port>
			</output>
		</layer>
		<layer id="510" name="InceptionV3/Logits/SpatialSqueeze/Dims/Output_0/Data__const" type="Const" version="opset1">
			<data element_type="i64" offset="95277652" shape="2" size="16"/>
			<output>
				<port id="0" precision="I64">
					<dim>2</dim>
				</port>
			</output>
		</layer>
		<layer id="511" name="InceptionV3/Logits/SpatialSqueeze" type="Squeeze" version="opset1">
			<input>
				<port id="0">
					<dim>1</dim>
					<dim>1</dim>
					<dim>1</dim>
					<dim>1001</dim>
				</port>
				<port id="1">
					<dim>2</dim>
				</port>
			</input>
			<output>
				<port id="2" names="InceptionV3/Logits/SpatialSqueeze:0" precision="FP32">
					<dim>1</dim>
					<dim>1001</dim>
				</port>
			</output>
		</layer>
		<layer id="512" name="InceptionV3/Predictions/Reshape/Cast_121482_const" type="Const" version="opset1">
			<data element_type="i64" offset="95277668" shape="2" size="16"/>
			<output>
				<port id="0" names="InceptionV3/Predictions/Reshape/shape:0" precision="I64">
					<dim>2</dim>
				</port>
			</output>
		</layer>
		<layer id="513" name="InceptionV3/Predictions/Reshape" type="Reshape" version="opset1">
			<data special_zero="false"/>
			<input>
				<port id="0">
					<dim>1</dim>
					<dim>1001</dim>
				</port>
				<port id="1">
					<dim>2</dim>
				</port>
			</input>
			<output>
				<port id="2" names="InceptionV3/Predictions/Reshape:0" precision="FP32">
					<dim>1</dim>
					<dim>1001</dim>
				</port>
			</output>
		</layer>
		<layer id="514" name="InceptionV3/Predictions/Softmax" type="SoftMax" version="opset1">
			<data axis="1"/>
			<input>
				<port id="0">
					<dim>1</dim>
					<dim>1001</dim>
				</port>
			</input>
			<output>
				<port id="1" names="InceptionV3/Predictions/Softmax:0" precision="FP32">
					<dim>1</dim>
					<dim>1001</dim>
				</port>
			</output>
		</layer>
		<layer id="515" name="InceptionV3/Predictions/Softmax:0" type="Result" version="opset1">
			<input>
				<port id="0">
					<dim>1</dim>
					<dim>1001</dim>
				</port>
			</input>
		</layer>
	</layers>
	<edges>
		<edge from-layer="0" from-port="0" to-layer="2" to-port="0"/>
		<edge from-layer="1" from-port="0" to-layer="2" to-port="1"/>
		<edge from-layer="2" from-port="2" to-layer="4" to-port="0"/>
		<edge from-layer="3" from-port="0" to-layer="4" to-port="1"/>
		<edge from-layer="4" from-port="2" to-layer="6" to-port="0"/>
		<edge from-layer="5" from-port="0" to-layer="6" to-port="1"/>
		<edge from-layer="6" from-port="2" to-layer="8" to-port="0"/>
		<edge from-layer="7" from-port="0" to-layer="8" to-port="1"/>
		<edge from-layer="8" from-port="2" to-layer="9" to-port="0"/>
		<edge from-layer="9" from-port="1" to-layer="11" to-port="0"/>
		<edge from-layer="10" from-port="0" to-layer="11" to-port="1"/>
		<edge from-layer="11" from-port="2" to-layer="13" to-port="0"/>
		<edge from-layer="12" from-port="0" to-layer="13" to-port="1"/>
		<edge from-layer="13" from-port="2" to-layer="14" to-port="0"/>
		<edge from-layer="14" from-port="1" to-layer="16" to-port="0"/>
		<edge from-layer="15" from-port="0" to-layer="16" to-port="1"/>
		<edge from-layer="16" from-port="2" to-layer="18" to-port="0"/>
		<edge from-layer="17" from-port="0" to-layer="18" to-port="1"/>
		<edge from-layer="18" from-port="2" to-layer="19" to-port="0"/>
		<edge from-layer="19" from-port="1" to-layer="20" to-port="0"/>
		<edge from-layer="20" from-port="1" to-layer="22" to-port="0"/>
		<edge from-layer="21" from-port="0" to-layer="22" to-port="1"/>
		<edge from-layer="22" from-port="2" to-layer="24" to-port="0"/>
		<edge from-layer="23" from-port="0" to-layer="24" to-port="1"/>
		<edge from-layer="24" from-port="2" to-layer="25" to-port="0"/>
		<edge from-layer="25" from-port="1" to-layer="27" to-port="0"/>
		<edge from-layer="26" from-port="0" to-layer="27" to-port="1"/>
		<edge from-layer="27" from-port="2" to-layer="29" to-port="0"/>
		<edge from-layer="28" from-port="0" to-layer="29" to-port="1"/>
		<edge from-layer="29" from-port="2" to-layer="30" to-port="0"/>
		<edge from-layer="30" from-port="1" to-layer="31" to-port="0"/>
		<edge from-layer="31" from-port="1" to-layer="33" to-port="0"/>
		<edge from-layer="32" from-port="0" to-layer="33" to-port="1"/>
		<edge from-layer="33" from-port="2" to-layer="35" to-port="0"/>
		<edge from-layer="34" from-port="0" to-layer="35" to-port="1"/>
		<edge from-layer="35" from-port="2" to-layer="36" to-port="0"/>
		<edge from-layer="31" from-port="1" to-layer="38" to-port="0"/>
		<edge from-layer="37" from-port="0" to-layer="38" to-port="1"/>
		<edge from-layer="38" from-port="2" to-layer="40" to-port="0"/>
		<edge from-layer="39" from-port="0" to-layer="40" to-port="1"/>
		<edge from-layer="40" from-port="2" to-layer="41" to-port="0"/>
		<edge from-layer="41" from-port="1" to-layer="43" to-port="0"/>
		<edge from-layer="42" from-port="0" to-layer="43" to-port="1"/>
		<edge from-layer="43" from-port="2" to-layer="45" to-port="0"/>
		<edge from-layer="44" from-port="0" to-layer="45" to-port="1"/>
		<edge from-layer="45" from-port="2" to-layer="46" to-port="0"/>
		<edge from-layer="31" from-port="1" to-layer="48" to-port="0"/>
		<edge from-layer="47" from-port="0" to-layer="48" to-port="1"/>
		<edge from-layer="48" from-port="2" to-layer="50" to-port="0"/>
		<edge from-layer="49" from-port="0" to-layer="50" to-port="1"/>
		<edge from-layer="50" from-port="2" to-layer="51" to-port="0"/>
		<edge from-layer="51" from-port="1" to-layer="53" to-port="0"/>
		<edge from-layer="52" from-port="0" to-layer="53" to-port="1"/>
		<edge from-layer="53" from-port="2" to-layer="55" to-port="0"/>
		<edge from-layer="54" from-port="0" to-layer="55" to-port="1"/>
		<edge from-layer="55" from-port="2" to-layer="56" to-port="0"/>
		<edge from-layer="56" from-port="1" to-layer="58" to-port="0"/>
		<edge from-layer="57" from-port="0" to-layer="58" to-port="1"/>
		<edge from-layer="58" from-port="2" to-layer="60" to-port="0"/>
		<edge from-layer="59" from-port="0" to-layer="60" to-port="1"/>
		<edge from-layer="60" from-port="2" to-layer="61" to-port="0"/>
		<edge from-layer="31" from-port="1" to-layer="62" to-port="0"/>
		<edge from-layer="62" from-port="1" to-layer="64" to-port="0"/>
		<edge from-layer="63" from-port="0" to-layer="64" to-port="1"/>
		<edge from-layer="64" from-port="2" to-layer="66" to-port="0"/>
		<edge from-layer="65" from-port="0" to-layer="66" to-port="1"/>
		<edge from-layer="66" from-port="2" to-layer="67" to-port="0"/>
		<edge from-layer="36" from-port="1" to-layer="68" to-port="0"/>
		<edge from-layer="46" from-port="1" to-layer="68" to-port="1"/>
		<edge from-layer="61" from-port="1" to-layer="68" to-port="2"/>
		<edge from-layer="67" from-port="1" to-layer="68" to-port="3"/>
		<edge from-layer="68" from-port="4" to-layer="70" to-port="0"/>
		<edge from-layer="69" from-port="0" to-layer="70" to-port="1"/>
		<edge from-layer="70" from-port="2" to-layer="72" to-port="0"/>
		<edge from-layer="71" from-port="0" to-layer="72" to-port="1"/>
		<edge from-layer="72" from-port="2" to-layer="73" to-port="0"/>
		<edge from-layer="68" from-port="4" to-layer="75" to-port="0"/>
		<edge from-layer="74" from-port="0" to-layer="75" to-port="1"/>
		<edge from-layer="75" from-port="2" to-layer="77" to-port="0"/>
		<edge from-layer="76" from-port="0" to-layer="77" to-port="1"/>
		<edge from-layer="77" from-port="2" to-layer="78" to-port="0"/>
		<edge from-layer="78" from-port="1" to-layer="80" to-port="0"/>
		<edge from-layer="79" from-port="0" to-layer="80" to-port="1"/>
		<edge from-layer="80" from-port="2" to-layer="82" to-port="0"/>
		<edge from-layer="81" from-port="0" to-layer="82" to-port="1"/>
		<edge from-layer="82" from-port="2" to-layer="83" to-port="0"/>
		<edge from-layer="68" from-port="4" to-layer="85" to-port="0"/>
		<edge from-layer="84" from-port="0" to-layer="85" to-port="1"/>
		<edge from-layer="85" from-port="2" to-layer="87" to-port="0"/>
		<edge from-layer="86" from-port="0" to-layer="87" to-port="1"/>
		<edge from-layer="87" from-port="2" to-layer="88" to-port="0"/>
		<edge from-layer="88" from-port="1" to-layer="90" to-port="0"/>
		<edge from-layer="89" from-port="0" to-layer="90" to-port="1"/>
		<edge from-layer="90" from-port="2" to-layer="92" to-port="0"/>
		<edge from-layer="91" from-port="0" to-layer="92" to-port="1"/>
		<edge from-layer="92" from-port="2" to-layer="93" to-port="0"/>
		<edge from-layer="93" from-port="1" to-layer="95" to-port="0"/>
		<edge from-layer="94" from-port="0" to-layer="95" to-port="1"/>
		<edge from-layer="95" from-port="2" to-layer="97" to-port="0"/>
		<edge from-layer="96" from-port="0" to-layer="97" to-port="1"/>
		<edge from-layer="97" from-port="2" to-layer="98" to-port="0"/>
		<edge from-layer="68" from-port="4" to-layer="99" to-port="0"/>
		<edge from-layer="99" from-port="1" to-layer="101" to-port="0"/>
		<edge from-layer="100" from-port="0" to-layer="101" to-port="1"/>
		<edge from-layer="101" from-port="2" to-layer="103" to-port="0"/>
		<edge from-layer="102" from-port="0" to-layer="103" to-port="1"/>
		<edge from-layer="103" from-port="2" to-layer="104" to-port="0"/>
		<edge from-layer="73" from-port="1" to-layer="105" to-port="0"/>
		<edge from-layer="83" from-port="1" to-layer="105" to-port="1"/>
		<edge from-layer="98" from-port="1" to-layer="105" to-port="2"/>
		<edge from-layer="104" from-port="1" to-layer="105" to-port="3"/>
		<edge from-layer="105" from-port="4" to-layer="107" to-port="0"/>
		<edge from-layer="106" from-port="0" to-layer="107" to-port="1"/>
		<edge from-layer="107" from-port="2" to-layer="109" to-port="0"/>
		<edge from-layer="108" from-port="0" to-layer="109" to-port="1"/>
		<edge from-layer="109" from-port="2" to-layer="110" to-port="0"/>
		<edge from-layer="105" from-port="4" to-layer="112" to-port="0"/>
		<edge from-layer="111" from-port="0" to-layer="112" to-port="1"/>
		<edge from-layer="112" from-port="2" to-layer="114" to-port="0"/>
		<edge from-layer="113" from-port="0" to-layer="114" to-port="1"/>
		<edge from-layer="114" from-port="2" to-layer="115" to-port="0"/>
		<edge from-layer="115" from-port="1" to-layer="117" to-port="0"/>
		<edge from-layer="116" from-port="0" to-layer="117" to-port="1"/>
		<edge from-layer="117" from-port="2" to-layer="119" to-port="0"/>
		<edge from-layer="118" from-port="0" to-layer="119" to-port="1"/>
		<edge from-layer="119" from-port="2" to-layer="120" to-port="0"/>
		<edge from-layer="105" from-port="4" to-layer="122" to-port="0"/>
		<edge from-layer="121" from-port="0" to-layer="122" to-port="1"/>
		<edge from-layer="122" from-port="2" to-layer="124" to-port="0"/>
		<edge from-layer="123" from-port="0" to-layer="124" to-port="1"/>
		<edge from-layer="124" from-port="2" to-layer="125" to-port="0"/>
		<edge from-layer="125" from-port="1" to-layer="127" to-port="0"/>
		<edge from-layer="126" from-port="0" to-layer="127" to-port="1"/>
		<edge from-layer="127" from-port="2" to-layer="129" to-port="0"/>
		<edge from-layer="128" from-port="0" to-layer="129" to-port="1"/>
		<edge from-layer="129" from-port="2" to-layer="130" to-port="0"/>
		<edge from-layer="130" from-port="1" to-layer="132" to-port="0"/>
		<edge from-layer="131" from-port="0" to-layer="132" to-port="1"/>
		<edge from-layer="132" from-port="2" to-layer="134" to-port="0"/>
		<edge from-layer="133" from-port="0" to-layer="134" to-port="1"/>
		<edge from-layer="134" from-port="2" to-layer="135" to-port="0"/>
		<edge from-layer="105" from-port="4" to-layer="136" to-port="0"/>
		<edge from-layer="136" from-port="1" to-layer="138" to-port="0"/>
		<edge from-layer="137" from-port="0" to-layer="138" to-port="1"/>
		<edge from-layer="138" from-port="2" to-layer="140" to-port="0"/>
		<edge from-layer="139" from-port="0" to-layer="140" to-port="1"/>
		<edge from-layer="140" from-port="2" to-layer="141" to-port="0"/>
		<edge from-layer="110" from-port="1" to-layer="142" to-port="0"/>
		<edge from-layer="120" from-port="1" to-layer="142" to-port="1"/>
		<edge from-layer="135" from-port="1" to-layer="142" to-port="2"/>
		<edge from-layer="141" from-port="1" to-layer="142" to-port="3"/>
		<edge from-layer="142" from-port="4" to-layer="144" to-port="0"/>
		<edge from-layer="143" from-port="0" to-layer="144" to-port="1"/>
		<edge from-layer="144" from-port="2" to-layer="146" to-port="0"/>
		<edge from-layer="145" from-port="0" to-layer="146" to-port="1"/>
		<edge from-layer="146" from-port="2" to-layer="147" to-port="0"/>
		<edge from-layer="142" from-port="4" to-layer="149" to-port="0"/>
		<edge from-layer="148" from-port="0" to-layer="149" to-port="1"/>
		<edge from-layer="149" from-port="2" to-layer="151" to-port="0"/>
		<edge from-layer="150" from-port="0" to-layer="151" to-port="1"/>
		<edge from-layer="151" from-port="2" to-layer="152" to-port="0"/>
		<edge from-layer="152" from-port="1" to-layer="154" to-port="0"/>
		<edge from-layer="153" from-port="0" to-layer="154" to-port="1"/>
		<edge from-layer="154" from-port="2" to-layer="156" to-port="0"/>
		<edge from-layer="155" from-port="0" to-layer="156" to-port="1"/>
		<edge from-layer="156" from-port="2" to-layer="157" to-port="0"/>
		<edge from-layer="157" from-port="1" to-layer="159" to-port="0"/>
		<edge from-layer="158" from-port="0" to-layer="159" to-port="1"/>
		<edge from-layer="159" from-port="2" to-layer="161" to-port="0"/>
		<edge from-layer="160" from-port="0" to-layer="161" to-port="1"/>
		<edge from-layer="161" from-port="2" to-layer="162" to-port="0"/>
		<edge from-layer="142" from-port="4" to-layer="163" to-port="0"/>
		<edge from-layer="147" from-port="1" to-layer="164" to-port="0"/>
		<edge from-layer="162" from-port="1" to-layer="164" to-port="1"/>
		<edge from-layer="163" from-port="1" to-layer="164" to-port="2"/>
		<edge from-layer="164" from-port="3" to-layer="166" to-port="0"/>
		<edge from-layer="165" from-port="0" to-layer="166" to-port="1"/>
		<edge from-layer="166" from-port="2" to-layer="168" to-port="0"/>
		<edge from-layer="167" from-port="0" to-layer="168" to-port="1"/>
		<edge from-layer="168" from-port="2" to-layer="169" to-port="0"/>
		<edge from-layer="164" from-port="3" to-layer="171" to-port="0"/>
		<edge from-layer="170" from-port="0" to-layer="171" to-port="1"/>
		<edge from-layer="171" from-port="2" to-layer="173" to-port="0"/>
		<edge from-layer="172" from-port="0" to-layer="173" to-port="1"/>
		<edge from-layer="173" from-port="2" to-layer="174" to-port="0"/>
		<edge from-layer="174" from-port="1" to-layer="176" to-port="0"/>
		<edge from-layer="175" from-port="0" to-layer="176" to-port="1"/>
		<edge from-layer="176" from-port="2" to-layer="178" to-port="0"/>
		<edge from-layer="177" from-port="0" to-layer="178" to-port="1"/>
		<edge from-layer="178" from-port="2" to-layer="179" to-port="0"/>
		<edge from-layer="179" from-port="1" to-layer="181" to-port="0"/>
		<edge from-layer="180" from-port="0" to-layer="181" to-port="1"/>
		<edge from-layer="181" from-port="2" to-layer="183" to-port="0"/>
		<edge from-layer="182" from-port="0" to-layer="183" to-port="1"/>
		<edge from-layer="183" from-port="2" to-layer="184" to-port="0"/>
		<edge from-layer="164" from-port="3" to-layer="186" to-port="0"/>
		<edge from-layer="185" from-port="0" to-layer="186" to-port="1"/>
		<edge from-layer="186" from-port="2" to-layer="188" to-port="0"/>
		<edge from-layer="187" from-port="0" to-layer="188" to-port="1"/>
		<edge from-layer="188" from-port="2" to-layer="189" to-port="0"/>
		<edge from-layer="189" from-port="1" to-layer="191" to-port="0"/>
		<edge from-layer="190" from-port="0" to-layer="191" to-port="1"/>
		<edge from-layer="191" from-port="2" to-layer="193" to-port="0"/>
		<edge from-layer="192" from-port="0" to-layer="193" to-port="1"/>
		<edge from-layer="193" from-port="2" to-layer="194" to-port="0"/>
		<edge from-layer="194" from-port="1" to-layer="196" to-port="0"/>
		<edge from-layer="195" from-port="0" to-layer="196" to-port="1"/>
		<edge from-layer="196" from-port="2" to-layer="198" to-port="0"/>
		<edge from-layer="197" from-port="0" to-layer="198" to-port="1"/>
		<edge from-layer="198" from-port="2" to-layer="199" to-port="0"/>
		<edge from-layer="199" from-port="1" to-layer="201" to-port="0"/>
		<edge from-layer="200" from-port="0" to-layer="201" to-port="1"/>
		<edge from-layer="201" from-port="2" to-layer="203" to-port="0"/>
		<edge from-layer="202" from-port="0" to-layer="203" to-port="1"/>
		<edge from-layer="203" from-port="2" to-layer="204" to-port="0"/>
		<edge from-layer="204" from-port="1" to-layer="206" to-port="0"/>
		<edge from-layer="205" from-port="0" to-layer="206" to-port="1"/>
		<edge from-layer="206" from-port="2" to-layer="208" to-port="0"/>
		<edge from-layer="207" from-port="0" to-layer="208" to-port="1"/>
		<edge from-layer="208" from-port="2" to-layer="209" to-port="0"/>
		<edge from-layer="164" from-port="3" to-layer="210" to-port="0"/>
		<edge from-layer="210" from-port="1" to-layer="212" to-port="0"/>
		<edge from-layer="211" from-port="0" to-layer="212" to-port="1"/>
		<edge from-layer="212" from-port="2" to-layer="214" to-port="0"/>
		<edge from-layer="213" from-port="0" to-layer="214" to-port="1"/>
		<edge from-layer="214" from-port="2" to-layer="215" to-port="0"/>
		<edge from-layer="169" from-port="1" to-layer="216" to-port="0"/>
		<edge from-layer="184" from-port="1" to-layer="216" to-port="1"/>
		<edge from-layer="209" from-port="1" to-layer="216" to-port="2"/>
		<edge from-layer="215" from-port="1" to-layer="216" to-port="3"/>
		<edge from-layer="216" from-port="4" to-layer="218" to-port="0"/>
		<edge from-layer="217" from-port="0" to-layer="218" to-port="1"/>
		<edge from-layer="218" from-port="2" to-layer="220" to-port="0"/>
		<edge from-layer="219" from-port="0" to-layer="220" to-port="1"/>
		<edge from-layer="220" from-port="2" to-layer="221" to-port="0"/>
		<edge from-layer="216" from-port="4" to-layer="223" to-port="0"/>
		<edge from-layer="222" from-port="0" to-layer="223" to-port="1"/>
		<edge from-layer="223" from-port="2" to-layer="225" to-port="0"/>
		<edge from-layer="224" from-port="0" to-layer="225" to-port="1"/>
		<edge from-layer="225" from-port="2" to-layer="226" to-port="0"/>
		<edge from-layer="226" from-port="1" to-layer="228" to-port="0"/>
		<edge from-layer="227" from-port="0" to-layer="228" to-port="1"/>
		<edge from-layer="228" from-port="2" to-layer="230" to-port="0"/>
		<edge from-layer="229" from-port="0" to-layer="230" to-port="1"/>
		<edge from-layer="230" from-port="2" to-layer="231" to-port="0"/>
		<edge from-layer="231" from-port="1" to-layer="233" to-port="0"/>
		<edge from-layer="232" from-port="0" to-layer="233" to-port="1"/>
		<edge from-layer="233" from-port="2" to-layer="235" to-port="0"/>
		<edge from-layer="234" from-port="0" to-layer="235" to-port="1"/>
		<edge from-layer="235" from-port="2" to-layer="236" to-port="0"/>
		<edge from-layer="216" from-port="4" to-layer="238" to-port="0"/>
		<edge from-layer="237" from-port="0" to-layer="238" to-port="1"/>
		<edge from-layer="238" from-port="2" to-layer="240" to-port="0"/>
		<edge from-layer="239" from-port="0" to-layer="240" to-port="1"/>
		<edge from-layer="240" from-port="2" to-layer="241" to-port="0"/>
		<edge from-layer="241" from-port="1" to-layer="243" to-port="0"/>
		<edge from-layer="242" from-port="0" to-layer="243" to-port="1"/>
		<edge from-layer="243" from-port="2" to-layer="245" to-port="0"/>
		<edge from-layer="244" from-port="0" to-layer="245" to-port="1"/>
		<edge from-layer="245" from-port="2" to-layer="246" to-port="0"/>
		<edge from-layer="246" from-port="1" to-layer="248" to-port="0"/>
		<edge from-layer="247" from-port="0" to-layer="248" to-port="1"/>
		<edge from-layer="248" from-port="2" to-layer="250" to-port="0"/>
		<edge from-layer="249" from-port="0" to-layer="250" to-port="1"/>
		<edge from-layer="250" from-port="2" to-layer="251" to-port="0"/>
		<edge from-layer="251" from-port="1" to-layer="253" to-port="0"/>
		<edge from-layer="252" from-port="0" to-layer="253" to-port="1"/>
		<edge from-layer="253" from-port="2" to-layer="255" to-port="0"/>
		<edge from-layer="254" from-port="0" to-layer="255" to-port="1"/>
		<edge from-layer="255" from-port="2" to-layer="256" to-port="0"/>
		<edge from-layer="256" from-port="1" to-layer="258" to-port="0"/>
		<edge from-layer="257" from-port="0" to-layer="258" to-port="1"/>
		<edge from-layer="258" from-port="2" to-layer="260" to-port="0"/>
		<edge from-layer="259" from-port="0" to-layer="260" to-port="1"/>
		<edge from-layer="260" from-port="2" to-layer="261" to-port="0"/>
		<edge from-layer="216" from-port="4" to-layer="262" to-port="0"/>
		<edge from-layer="262" from-port="1" to-layer="264" to-port="0"/>
		<edge from-layer="263" from-port="0" to-layer="264" to-port="1"/>
		<edge from-layer="264" from-port="2" to-layer="266" to-port="0"/>
		<edge from-layer="265" from-port="0" to-layer="266" to-port="1"/>
		<edge from-layer="266" from-port="2" to-layer="267" to-port="0"/>
		<edge from-layer="221" from-port="1" to-layer="268" to-port="0"/>
		<edge from-layer="236" from-port="1" to-layer="268" to-port="1"/>
		<edge from-layer="261" from-port="1" to-layer="268" to-port="2"/>
		<edge from-layer="267" from-port="1" to-layer="268" to-port="3"/>
		<edge from-layer="268" from-port="4" to-layer="270" to-port="0"/>
		<edge from-layer="269" from-port="0" to-layer="270" to-port="1"/>
		<edge from-layer="270" from-port="2" to-layer="272" to-port="0"/>
		<edge from-layer="271" from-port="0" to-layer="272" to-port="1"/>
		<edge from-layer="272" from-port="2" to-layer="273" to-port="0"/>
		<edge from-layer="268" from-port="4" to-layer="275" to-port="0"/>
		<edge from-layer="274" from-port="0" to-layer="275" to-port="1"/>
		<edge from-layer="275" from-port="2" to-layer="277" to-port="0"/>
		<edge from-layer="276" from-port="0" to-layer="277" to-port="1"/>
		<edge from-layer="277" from-port="2" to-layer="278" to-port="0"/>
		<edge from-layer="278" from-port="1" to-layer="280" to-port="0"/>
		<edge from-layer="279" from-port="0" to-layer="280" to-port="1"/>
		<edge from-layer="280" from-port="2" to-layer="282" to-port="0"/>
		<edge from-layer="281" from-port="0" to-layer="282" to-port="1"/>
		<edge from-layer="282" from-port="2" to-layer="283" to-port="0"/>
		<edge from-layer="283" from-port="1" to-layer="285" to-port="0"/>
		<edge from-layer="284" from-port="0" to-layer="285" to-port="1"/>
		<edge from-layer="285" from-port="2" to-layer="287" to-port="0"/>
		<edge from-layer="286" from-port="0" to-layer="287" to-port="1"/>
		<edge from-layer="287" from-port="2" to-layer="288" to-port="0"/>
		<edge from-layer="268" from-port="4" to-layer="290" to-port="0"/>
		<edge from-layer="289" from-port="0" to-layer="290" to-port="1"/>
		<edge from-layer="290" from-port="2" to-layer="292" to-port="0"/>
		<edge from-layer="291" from-port="0" to-layer="292" to-port="1"/>
		<edge from-layer="292" from-port="2" to-layer="293" to-port="0"/>
		<edge from-layer="293" from-port="1" to-layer="295" to-port="0"/>
		<edge from-layer="294" from-port="0" to-layer="295" to-port="1"/>
		<edge from-layer="295" from-port="2" to-layer="297" to-port="0"/>
		<edge from-layer="296" from-port="0" to-layer="297" to-port="1"/>
		<edge from-layer="297" from-port="2" to-layer="298" to-port="0"/>
		<edge from-layer="298" from-port="1" to-layer="300" to-port="0"/>
		<edge from-layer="299" from-port="0" to-layer="300" to-port="1"/>
		<edge from-layer="300" from-port="2" to-layer="302" to-port="0"/>
		<edge from-layer="301" from-port="0" to-layer="302" to-port="1"/>
		<edge from-layer="302" from-port="2" to-layer="303" to-port="0"/>
		<edge from-layer="303" from-port="1" to-layer="305" to-port="0"/>
		<edge from-layer="304" from-port="0" to-layer="305" to-port="1"/>
		<edge from-layer="305" from-port="2" to-layer="307" to-port="0"/>
		<edge from-layer="306" from-port="0" to-layer="307" to-port="1"/>
		<edge from-layer="307" from-port="2" to-layer="308" to-port="0"/>
		<edge from-layer="308" from-port="1" to-layer="310" to-port="0"/>
		<edge from-layer="309" from-port="0" to-layer="310" to-port="1"/>
		<edge from-layer="310" from-port="2" to-layer="312" to-port="0"/>
		<edge from-layer="311" from-port="0" to-layer="312" to-port="1"/>
		<edge from-layer="312" from-port="2" to-layer="313" to-port="0"/>
		<edge from-layer="268" from-port="4" to-layer="314" to-port="0"/>
		<edge from-layer="314" from-port="1" to-layer="316" to-port="0"/>
		<edge from-layer="315" from-port="0" to-layer="316" to-port="1"/>
		<edge from-layer="316" from-port="2" to-layer="318" to-port="0"/>
		<edge from-layer="317" from-port="0" to-layer="318" to-port="1"/>
		<edge from-layer="318" from-port="2" to-layer="319" to-port="0"/>
		<edge from-layer="273" from-port="1" to-layer="320" to-port="0"/>
		<edge from-layer="288" from-port="1" to-layer="320" to-port="1"/>
		<edge from-layer="313" from-port="1" to-layer="320" to-port="2"/>
		<edge from-layer="319" from-port="1" to-layer="320" to-port="3"/>
		<edge from-layer="320" from-port="4" to-layer="322" to-port="0"/>
		<edge from-layer="321" from-port="0" to-layer="322" to-port="1"/>
		<edge from-layer="322" from-port="2" to-layer="324" to-port="0"/>
		<edge from-layer="323" from-port="0" to-layer="324" to-port="1"/>
		<edge from-layer="324" from-port="2" to-layer="325" to-port="0"/>
		<edge from-layer="320" from-port="4" to-layer="327" to-port="0"/>
		<edge from-layer="326" from-port="0" to-layer="327" to-port="1"/>
		<edge from-layer="327" from-port="2" to-layer="329" to-port="0"/>
		<edge from-layer="328" from-port="0" to-layer="329" to-port="1"/>
		<edge from-layer="329" from-port="2" to-layer="330" to-port="0"/>
		<edge from-layer="330" from-port="1" to-layer="332" to-port="0"/>
		<edge from-layer="331" from-port="0" to-layer="332" to-port="1"/>
		<edge from-layer="332" from-port="2" to-layer="334" to-port="0"/>
		<edge from-layer="333" from-port="0" to-layer="334" to-port="1"/>
		<edge from-layer="334" from-port="2" to-layer="335" to-port="0"/>
		<edge from-layer="335" from-port="1" to-layer="337" to-port="0"/>
		<edge from-layer="336" from-port="0" to-layer="337" to-port="1"/>
		<edge from-layer="337" from-port="2" to-layer="339" to-port="0"/>
		<edge from-layer="338" from-port="0" to-layer="339" to-port="1"/>
		<edge from-layer="339" from-port="2" to-layer="340" to-port="0"/>
		<edge from-layer="320" from-port="4" to-layer="342" to-port="0"/>
		<edge from-layer="341" from-port="0" to-layer="342" to-port="1"/>
		<edge from-layer="342" from-port="2" to-layer="344" to-port="0"/>
		<edge from-layer="343" from-port="0" to-layer="344" to-port="1"/>
		<edge from-layer="344" from-port="2" to-layer="345" to-port="0"/>
		<edge from-layer="345" from-port="1" to-layer="347" to-port="0"/>
		<edge from-layer="346" from-port="0" to-layer="347" to-port="1"/>
		<edge from-layer="347" from-port="2" to-layer="349" to-port="0"/>
		<edge from-layer="348" from-port="0" to-layer="349" to-port="1"/>
		<edge from-layer="349" from-port="2" to-layer="350" to-port="0"/>
		<edge from-layer="350" from-port="1" to-layer="352" to-port="0"/>
		<edge from-layer="351" from-port="0" to-layer="352" to-port="1"/>
		<edge from-layer="352" from-port="2" to-layer="354" to-port="0"/>
		<edge from-layer="353" from-port="0" to-layer="354" to-port="1"/>
		<edge from-layer="354" from-port="2" to-layer="355" to-port="0"/>
		<edge from-layer="355" from-port="1" to-layer="357" to-port="0"/>
		<edge from-layer="356" from-port="0" to-layer="357" to-port="1"/>
		<edge from-layer="357" from-port="2" to-layer="359" to-port="0"/>
		<edge from-layer="358" from-port="0" to-layer="359" to-port="1"/>
		<edge from-layer="359" from-port="2" to-layer="360" to-port="0"/>
		<edge from-layer="360" from-port="1" to-layer="362" to-port="0"/>
		<edge from-layer="361" from-port="0" to-layer="362" to-port="1"/>
		<edge from-layer="362" from-port="2" to-layer="364" to-port="0"/>
		<edge from-layer="363" from-port="0" to-layer="364" to-port="1"/>
		<edge from-layer="364" from-port="2" to-layer="365" to-port="0"/>
		<edge from-layer="320" from-port="4" to-layer="366" to-port="0"/>
		<edge from-layer="366" from-port="1" to-layer="368" to-port="0"/>
		<edge from-layer="367" from-port="0" to-layer="368" to-port="1"/>
		<edge from-layer="368" from-port="2" to-layer="370" to-port="0"/>
		<edge from-layer="369" from-port="0" to-layer="370" to-port="1"/>
		<edge from-layer="370" from-port="2" to-layer="371" to-port="0"/>
		<edge from-layer="325" from-port="1" to-layer="372" to-port="0"/>
		<edge from-layer="340" from-port="1" to-layer="372" to-port="1"/>
		<edge from-layer="365" from-port="1" to-layer="372" to-port="2"/>
		<edge from-layer="371" from-port="1" to-layer="372" to-port="3"/>
		<edge from-layer="372" from-port="4" to-layer="374" to-port="0"/>
		<edge from-layer="373" from-port="0" to-layer="374" to-port="1"/>
		<edge from-layer="374" from-port="2" to-layer="376" to-port="0"/>
		<edge from-layer="375" from-port="0" to-layer="376" to-port="1"/>
		<edge from-layer="376" from-port="2" to-layer="377" to-port="0"/>
		<edge from-layer="377" from-port="1" to-layer="379" to-port="0"/>
		<edge from-layer="378" from-port="0" to-layer="379" to-port="1"/>
		<edge from-layer="379" from-port="2" to-layer="381" to-port="0"/>
		<edge from-layer="380" from-port="0" to-layer="381" to-port="1"/>
		<edge from-layer="381" from-port="2" to-layer="382" to-port="0"/>
		<edge from-layer="372" from-port="4" to-layer="384" to-port="0"/>
		<edge from-layer="383" from-port="0" to-layer="384" to-port="1"/>
		<edge from-layer="384" from-port="2" to-layer="386" to-port="0"/>
		<edge from-layer="385" from-port="0" to-layer="386" to-port="1"/>
		<edge from-layer="386" from-port="2" to-layer="387" to-port="0"/>
		<edge from-layer="387" from-port="1" to-layer="389" to-port="0"/>
		<edge from-layer="388" from-port="0" to-layer="389" to-port="1"/>
		<edge from-layer="389" from-port="2" to-layer="391" to-port="0"/>
		<edge from-layer="390" from-port="0" to-layer="391" to-port="1"/>
		<edge from-layer="391" from-port="2" to-layer="392" to-port="0"/>
		<edge from-layer="392" from-port="1" to-layer="394" to-port="0"/>
		<edge from-layer="393" from-port="0" to-layer="394" to-port="1"/>
		<edge from-layer="394" from-port="2" to-layer="396" to-port="0"/>
		<edge from-layer="395" from-port="0" to-layer="396" to-port="1"/>
		<edge from-layer="396" from-port="2" to-layer="397" to-port="0"/>
		<edge from-layer="397" from-port="1" to-layer="399" to-port="0"/>
		<edge from-layer="398" from-port="0" to-layer="399" to-port="1"/>
		<edge from-layer="399" from-port="2" to-layer="401" to-port="0"/>
		<edge from-layer="400" from-port="0" to-layer="401" to-port="1"/>
		<edge from-layer="401" from-port="2" to-layer="402" to-port="0"/>
		<edge from-layer="372" from-port="4" to-layer="403" to-port="0"/>
		<edge from-layer="382" from-port="1" to-layer="404" to-port="0"/>
		<edge from-layer="402" from-port="1" to-layer="404" to-port="1"/>
		<edge from-layer="403" from-port="1" to-layer="404" to-port="2"/>
		<edge from-layer="404" from-port="3" to-layer="406" to-port="0"/>
		<edge from-layer="405" from-port="0" to-layer="406" to-port="1"/>
		<edge from-layer="406" from-port="2" to-layer="408" to-port="0"/>
		<edge from-layer="407" from-port="0" to-layer="408" to-port="1"/>
		<edge from-layer="408" from-port="2" to-layer="409" to-port="0"/>
		<edge from-layer="404" from-port="3" to-layer="411" to-port="0"/>
		<edge from-layer="410" from-port="0" to-layer="411" to-port="1"/>
		<edge from-layer="411" from-port="2" to-layer="413" to-port="0"/>
		<edge from-layer="412" from-port="0" to-layer="413" to-port="1"/>
		<edge from-layer="413" from-port="2" to-layer="414" to-port="0"/>
		<edge from-layer="414" from-port="1" to-layer="416" to-port="0"/>
		<edge from-layer="415" from-port="0" to-layer="416" to-port="1"/>
		<edge from-layer="416" from-port="2" to-layer="418" to-port="0"/>
		<edge from-layer="417" from-port="0" to-layer="418" to-port="1"/>
		<edge from-layer="418" from-port="2" to-layer="419" to-port="0"/>
		<edge from-layer="414" from-port="1" to-layer="421" to-port="0"/>
		<edge from-layer="420" from-port="0" to-layer="421" to-port="1"/>
		<edge from-layer="421" from-port="2" to-layer="423" to-port="0"/>
		<edge from-layer="422" from-port="0" to-layer="423" to-port="1"/>
		<edge from-layer="423" from-port="2" to-layer="424" to-port="0"/>
		<edge from-layer="419" from-port="1" to-layer="425" to-port="0"/>
		<edge from-layer="424" from-port="1" to-layer="425" to-port="1"/>
		<edge from-layer="404" from-port="3" to-layer="427" to-port="0"/>
		<edge from-layer="426" from-port="0" to-layer="427" to-port="1"/>
		<edge from-layer="427" from-port="2" to-layer="429" to-port="0"/>
		<edge from-layer="428" from-port="0" to-layer="429" to-port="1"/>
		<edge from-layer="429" from-port="2" to-layer="430" to-port="0"/>
		<edge from-layer="430" from-port="1" to-layer="432" to-port="0"/>
		<edge from-layer="431" from-port="0" to-layer="432" to-port="1"/>
		<edge from-layer="432" from-port="2" to-layer="434" to-port="0"/>
		<edge from-layer="433" from-port="0" to-layer="434" to-port="1"/>
		<edge from-layer="434" from-port="2" to-layer="435" to-port="0"/>
		<edge from-layer="435" from-port="1" to-layer="437" to-port="0"/>
		<edge from-layer="436" from-port="0" to-layer="437" to-port="1"/>
		<edge from-layer="437" from-port="2" to-layer="439" to-port="0"/>
		<edge from-layer="438" from-port="0" to-layer="439" to-port="1"/>
		<edge from-layer="439" from-port="2" to-layer="440" to-port="0"/>
		<edge from-layer="435" from-port="1" to-layer="442" to-port="0"/>
		<edge from-layer="441" from-port="0" to-layer="442" to-port="1"/>
		<edge from-layer="442" from-port="2" to-layer="444" to-port="0"/>
		<edge from-layer="443" from-port="0" to-layer="444" to-port="1"/>
		<edge from-layer="444" from-port="2" to-layer="445" to-port="0"/>
		<edge from-layer="440" from-port="1" to-layer="446" to-port="0"/>
		<edge from-layer="445" from-port="1" to-layer="446" to-port="1"/>
		<edge from-layer="404" from-port="3" to-layer="447" to-port="0"/>
		<edge from-layer="447" from-port="1" to-layer="449" to-port="0"/>
		<edge from-layer="448" from-port="0" to-layer="449" to-port="1"/>
		<edge from-layer="449" from-port="2" to-layer="451" to-port="0"/>
		<edge from-layer="450" from-port="0" to-layer="451" to-port="1"/>
		<edge from-layer="451" from-port="2" to-layer="452" to-port="0"/>
		<edge from-layer="409" from-port="1" to-layer="453" to-port="0"/>
		<edge from-layer="425" from-port="2" to-layer="453" to-port="1"/>
		<edge from-layer="446" from-port="2" to-layer="453" to-port="2"/>
		<edge from-layer="452" from-port="1" to-layer="453" to-port="3"/>
		<edge from-layer="453" from-port="4" to-layer="455" to-port="0"/>
		<edge from-layer="454" from-port="0" to-layer="455" to-port="1"/>
		<edge from-layer="455" from-port="2" to-layer="457" to-port="0"/>
		<edge from-layer="456" from-port="0" to-layer="457" to-port="1"/>
		<edge from-layer="457" from-port="2" to-layer="458" to-port="0"/>
		<edge from-layer="453" from-port="4" to-layer="460" to-port="0"/>
		<edge from-layer="459" from-port="0" to-layer="460" to-port="1"/>
		<edge from-layer="460" from-port="2" to-layer="462" to-port="0"/>
		<edge from-layer="461" from-port="0" to-layer="462" to-port="1"/>
		<edge from-layer="462" from-port="2" to-layer="463" to-port="0"/>
		<edge from-layer="463" from-port="1" to-layer="465" to-port="0"/>
		<edge from-layer="464" from-port="0" to-layer="465" to-port="1"/>
		<edge from-layer="465" from-port="2" to-layer="467" to-port="0"/>
		<edge from-layer="466" from-port="0" to-layer="467" to-port="1"/>
		<edge from-layer="467" from-port="2" to-layer="468" to-port="0"/>
		<edge from-layer="463" from-port="1" to-layer="470" to-port="0"/>
		<edge from-layer="469" from-port="0" to-layer="470" to-port="1"/>
		<edge from-layer="470" from-port="2" to-layer="472" to-port="0"/>
		<edge from-layer="471" from-port="0" to-layer="472" to-port="1"/>
		<edge from-layer="472" from-port="2" to-layer="473" to-port="0"/>
		<edge from-layer="468" from-port="1" to-layer="474" to-port="0"/>
		<edge from-layer="473" from-port="1" to-layer="474" to-port="1"/>
		<edge from-layer="453" from-port="4" to-layer="476" to-port="0"/>
		<edge from-layer="475" from-port="0" to-layer="476" to-port="1"/>
		<edge from-layer="476" from-port="2" to-layer="478" to-port="0"/>
		<edge from-layer="477" from-port="0" to-layer="478" to-port="1"/>
		<edge from-layer="478" from-port="2" to-layer="479" to-port="0"/>
		<edge from-layer="479" from-port="1" to-layer="481" to-port="0"/>
		<edge from-layer="480" from-port="0" to-layer="481" to-port="1"/>
		<edge from-layer="481" from-port="2" to-layer="483" to-port="0"/>
		<edge from-layer="482" from-port="0" to-layer="483" to-port="1"/>
		<edge from-layer="483" from-port="2" to-layer="484" to-port="0"/>
		<edge from-layer="484" from-port="1" to-layer="486" to-port="0"/>
		<edge from-layer="485" from-port="0" to-layer="486" to-port="1"/>
		<edge from-layer="486" from-port="2" to-layer="488" to-port="0"/>
		<edge from-layer="487" from-port="0" to-layer="488" to-port="1"/>
		<edge from-layer="488" from-port="2" to-layer="489" to-port="0"/>
		<edge from-layer="484" from-port="1" to-layer="491" to-port="0"/>
		<edge from-layer="490" from-port="0" to-layer="491" to-port="1"/>
		<edge from-layer="491" from-port="2" to-layer="493" to-port="0"/>
		<edge from-layer="492" from-port="0" to-layer="493" to-port="1"/>
		<edge from-layer="493" from-port="2" to-layer="494" to-port="0"/>
		<edge from-layer="489" from-port="1" to-layer="495" to-port="0"/>
		<edge from-layer="494" from-port="1" to-layer="495" to-port="1"/>
		<edge from-layer="453" from-port="4" to-layer="496" to-port="0"/>
		<edge from-layer="496" from-port="1" to-layer="498" to-port="0"/>
		<edge from-layer="497" from-port="0" to-layer="498" to-port="1"/>
		<edge from-layer="498" from-port="2" to-layer="500" to-port="0"/>
		<edge from-layer="499" from-port="0" to-layer="500" to-port="1"/>
		<edge from-layer="500" from-port="2" to-layer="501" to-port="0"/>
		<edge from-layer="458" from-port="1" to-layer="502" to-port="0"/>
		<edge from-layer="474" from-port="2" to-layer="502" to-port="1"/>
		<edge from-layer="495" from-port="2" to-layer="502" to-port="2"/>
		<edge from-layer="501" from-port="1" to-layer="502" to-port="3"/>
		<edge from-layer="502" from-port="4" to-layer="503" to-port="0"/>
		<edge from-layer="503" from-port="1" to-layer="505" to-port="0"/>
		<edge from-layer="504" from-port="0" to-layer="505" to-port="1"/>
		<edge from-layer="505" from-port="2" to-layer="507" to-port="0"/>
		<edge from-layer="506" from-port="0" to-layer="507" to-port="1"/>
		<edge from-layer="507" from-port="2" to-layer="509" to-port="0"/>
		<edge from-layer="508" from-port="0" to-layer="509" to-port="1"/>
		<edge from-layer="509" from-port="2" to-layer="511" to-port="0"/>
		<edge from-layer="510" from-port="0" to-layer="511" to-port="1"/>
		<edge from-layer="511" from-port="2" to-layer="513" to-port="0"/>
		<edge from-layer="512" from-port="0" to-layer="513" to-port="1"/>
		<edge from-layer="513" from-port="2" to-layer="514" to-port="0"/>
		<edge from-layer="514" from-port="1" to-layer="515" to-port="0"/>
	</edges>
	<meta_data>
		<MO_version value="custom_master_a1d858c5028c1a26d37286913d64028849454b75"/>
		<cli_parameters>
			<data_type value="float"/>
			<disable_nhwc_to_nchw value="False"/>
			<disable_resnet_optimization value="False"/>
			<disable_weights_compression value="False"/>
			<enable_concat_optimization value="False"/>
			<extensions value="DIR"/>
			<framework value="tf"/>
			<freeze_placeholder_with_value value="{}"/>
			<generate_deprecated_IR_V7 value="False"/>
			<input value="input"/>
			<input_model value="DIR/inception_v3_2016_08_28_frozen.pb"/>
			<input_model_is_text value="False"/>
			<input_shape value="[1,299,299,3]"/>
			<keep_shape_ops value="True"/>
			<log_level value="ERROR"/>
			<mean_scale_values value="{'input': {'mean': array([127.5, 127.5, 127.5]), 'scale': array([127.5])}}"/>
			<mean_values value="input[127.5,127.5,127.5]"/>
			<model_name value="inception_v3_2016_08_28_frozen"/>
			<output value="['InceptionV3/Predictions/Softmax']"/>
			<output_dir value="DIR"/>
			<placeholder_data_types value="{}"/>
			<placeholder_shapes value="{'input': array([  1, 299, 299,   3])}"/>
			<progress value="False"/>
			<reverse_input_channels value="True"/>
			<scale_values value="input[127.5]"/>
			<silent value="False"/>
			<static_shape value="False"/>
			<stream_output value="False"/>
			<unset unset_cli_parameters="batch, disable_fusing, disable_gfusing, finegrain_fusing, input_checkpoint, input_meta_graph, move_to_preprocess, saved_model_dir, saved_model_tags, scale, tensorboard_logdir, tensorflow_custom_layer_libraries, tensorflow_custom_operations_config_update, tensorflow_object_detection_api_pipeline_config, tensorflow_use_custom_operations_config, transformations_config"/>
		</cli_parameters>
	</meta_data>
</net>
